model/CP0_val_0.094190.pth (torch, 11546 bytes, 13 tensors)

conv_1.conv.0.weight f4 [12, 2, 2, 2]
000000 a6 91 4e 3e 75 5c 2f be 38 19 c5 be 98 50 4f be
       0.20172748 -0.17125113 -0.38495803 -0.20245588
000010 9e 3b 27 be 6d c4 cb 3d ea 9a 1e bc 9f 3a 87 3d
       -0.16331336 0.099495746 -0.009680489 0.06602978
000020 de 28 9f 3e 2a 59 8a 3c 28 a3 69 3e 61 20 6b 3e
       0.31085867 0.01688822 0.22816145 0.2296157
000030 8d 71 ac be cf 67 b1 be 7c 62 83 be ad 92 5d bd
       -0.33680382 -0.34649512 -0.25661075 -0.05409496
000040 a6 b8 c6 be 8a c1 94 be 17 0e 88 3d 79 96 72 bc
       -0.3881275 -0.2905391 0.066433124 -0.014806383
000050 6c b8 05 be e7 3b 3c 3d 25 83 ab 3d bd 54 40 3e
       -0.13058633 0.045955565 0.08374623 0.18782325
000060 b9 59 37 be 43 8b 18 3e 4e d0 03 be 32 81 a8 3e
       -0.1790532 0.14896874 -0.1287243 0.32911068
000070 0f eb d3 3d 83 1b b7 bd 14 ff c0 3e 18 0a 85 3d
       0.10347568 -0.08940794 0.3769461 0.06496066
000080 e3 f9 c8 3d a1 ac 59 3e ae 4b 9a 3e cb fc b7 bd
       0.09813287 0.21257259 0.30135864 -0.08983763
000090 ea 27 9b 3e 59 88 5e be b9 60 c7 bd 14 3f cf 3d
       0.3030389 -0.217317 -0.09735245 0.10119453
0000a0 47 99 1a 3c 8d 89 87 be 76 24 73 3e b9 17 1a 3e
       0.009435958 -0.2647213 0.23744377 0.15048112
0000b0 ff 0c ed 3d 98 84 91 be 57 18 64 be 37 ee 56 3e
       0.115747444 -0.28421474 -0.2227491 0.20989309
0000c0 02 26 00 3e d9 35 33 be 06 91 7e bd 10 38 81 bd
       0.12514499 -0.1750101 -0.062150024 -0.06309521
0000d0 da f4 ef 3d f3 9e b6 be de d6 db 3d 57 b8 42 3e
       0.117166236 -0.35668144 0.10734342 0.19015633
0000e0 5f 17 52 be 77 ef 3c 3e 4c f0 77 3e 7b af a5 3e
       -0.20516728 0.18450724 0.2421276 0.32360443
0000f0 45 17 a8 bd a7 ab 45 3d 71 60 a5 3e cc dc 8a be
       -0.08207563 0.048259404 0.3230014 -0.2712158
000100 96 e8 47 3e c3 69 73 be c2 45 70 3e a7 30 76 3e
       0.19522318 -0.23770814 0.2346411 0.24041997
000110 f1 18 6b be 8f 95 8c be 11 a9 8d be 4f a8 b3 3a
       -0.22958733 -0.27457854 -0.2766805 0.0013706776
000120 21 f3 9c 3d 85 3f 74 3e 43 86 1e be 7a 24 92 be
       0.07663561 0.23852356 -0.15480904 -0.28543454
000130 41 ca 38 be 8d 86 84 be 1d 87 af be 27 57 47 be
       -0.18045904 -0.25883904 -0.3428277 -0.1946684
000140 a8 e4 0e 3d a3 79 34 3c b8 32 9b be 23 b4 5a 3d
       0.034886032 0.011015329 -0.30312133 0.053394448
000150 01 67 4d be 87 bd 66 3e e4 0f cb be aa 71 62 be
       -0.20058824 0.22533236 -0.3966056 -0.22113672
000160 0d 78 fa bd 00 b6 9e 3c b2 16 a7 3e 0a 51 93 be
       -0.12229929 0.019373894 0.32634503 -0.28772765
000170 65 5c 17 be 2c 66 a2 be 34 87 10 be 92 17 97 3d
       -0.1478134 -0.31718576 -0.14114076 0.073775426

conv_1.conv.0.bias f4 [12]
000000 3d 3d 82 be f0 08 4d be 9b 35 e7 ba cc 33 6f bc
       -0.25437346 -0.2002294 -0.0017639877 -0.014599752
000010 3c 42 45 be f7 e7 01 be 2f 67 9e bc ce 55 a2 bd
       -0.19263548 -0.12686144 -0.019336311 -0.07926522
000020 f6 22 8a 3e de c0 a3 be 06 71 98 be 57 78 b0 3e
       0.26979798 -0.31983083 -0.2977373 0.34466812

conv_1.conv.1.weight f4 [12]
000000 50 16 7a 3f 8e 39 78 3f 95 4a 81 3f aa f1 78 3f
       0.97690296 0.9696282 1.0100886 0.9724375
000010 3c 98 79 3f 50 f5 70 3f f7 c8 7f 3f 6d 61 6b 3f
       0.97497916 0.9412432 0.99916023 0.91945535
000020 06 72 84 3f e6 0a 88 3f ea 07 8d 3f ec 5e 83 3f
       1.0347297 1.0628326 1.101804 1.0263343

conv_1.conv.1.bias f4 [12]
000000 60 5c 2b bd be 27 b4 bd cd 38 84 bb 12 2e 32 3d
       -0.041836143 -0.08796643 -0.0040350915 0.043500967
000010 7a b8 b9 3d 79 1d f8 bc a9 25 9f 3c 86 91 00 3d
       0.09068389 -0.030287491 0.019427137 0.031388782
000020 f4 6c 9f 3c eb 0d 8a 3d d4 11 6c 3d 8b ab 9c bb
       0.019461133 0.06740936 0.05763419 -0.0047811917

conv_1.conv.1.running_mean f4 [12]
000000 f2 5b 1f c2 5e 50 b0 c1 f7 cb ea c1 88 8f 3c 42
       -39.83979 -22.039242 -29.349592 47.140167
000010 35 49 2d 42 d1 1a 97 c0 81 1b f6 c0 58 15 1e 42
       43.32149 -4.7220235 -7.6908574 39.520844
000020 a2 cd ec c1 f9 4e a9 c2 5d f7 71 c2 72 5b 35 c2
       -29.600407 -84.65424 -60.491566 -45.339302

conv_1.conv.1.running_var f4 [12]
000000 03 69 57 44 de 1e db 44 ce b8 bb 44 18 a7 c1 44
       861.6408 1752.9646 1501.7751 1549.2217
000010 dd 0f 92 44 f0 18 82 44 b1 40 7e 44 c9 b1 a4 44
       1168.4957 1040.7793 1017.0108 1317.5558
000020 12 4d cb 44 aa c0 5b 45 f7 a6 46 45 96 1d b7 44
       1626.4084 3516.0415 3178.4353 1464.9246

conv_2.conv.0.weight f4 [24, 12, 2, 2]
000000 22 e2 33 3e ee ae a6 3c 1c 1a 25 bd cd 9b 4e bc
       0.17566732 0.020347085 -0.040308103 -0.012610388
000010 60 35 cb bd a8 3e f3 bb 56 17 e5 bd 1d 69 f5 3d
       -0.0992229 -0.0074232407 -0.111860916 0.119829394
000020 59 6c be 3c a1 71 bf 3c 3a cd b4 bc 82 5c 8d 3d
       0.023245024 0.023369612 -0.022070516 0.0690241
000030 42 c3 90 bb 03 64 9f bd 9f 47 3b bd ff 67 1d bd
       -0.004417808 -0.077827476 -0.0457226 -0.038429257
000040 d7 a2 c3 bd 5b 13 bb bd ba 03 4f 3c b1 72 5e bd
       -0.095525436 -0.09134551 0.012635166 -0.054308597
000050 78 8c c4 3d 45 22 1c 3c 5c 71 37 bd 0e 8e 78 bd
       0.09597105 0.009529655 -0.044785842 -0.06068235
000060 05 0b 8f bc 3c 26 e0 3d c7 54 0d 3a 30 c1 a6 3d
       -0.01746131 0.10944793 0.0005391356 0.08142316
000070 4e 69 18 3d 6e 38 4f bd 20 7c c0 3c ee 1e be 3d
       0.0372098 -0.050590925 0.023496687 0.09283243
000080 a9 e6 7c 3d f0 dc 42 3c 97 bd 20 bb 26 02 e7 bc
       0.061743412 0.011893496 -0.0024527067 -0.028199267
000090 c1 56 8e 3c 20 f3 0a be bc 57 3f 3d 67 13 cb bd
       0.017375352 -0.13569307 0.04671453 -0.0991581
0000a0 dc ca 31 3e c8 eb 9d bd 41 4c 4c 3e c1 58 7f bd
       0.17362541 -0.07710987 0.19950964 -0.0623405
0000b0 83 62 21 ba 62 06 38 3e 11 56 c0 bb 36 9f c7 bd
       -0.0006156342 0.17971185 -0.005869635 -0.09747164
0000c0 61 65 fb bc 2e 7e 82 3d e6 af 87 bd 8b 52 ee bd
       -0.03068799 0.06371723 -0.06625347 -0.116368376
0000d0 be 25 18 be 5e 5b 6e 3c 20 b5 24 be f0 b3 89 3d
       -0.14858148 0.014548151 -0.16084719 0.067237735
0000e0 43 fa d0 3d e1 f4 66 bd 30 f5 22 3e 82 38 03 3d
       0.10203984 -0.05638588 0.15913844 0.032036312
0000f0 a4 f9 27 3d 73 51 3c 3d b2 b5 38 3d 90 42 b8 3c
       0.04100956 0.045976114 0.045095153 0.022492677
000100 1a cb aa 3c 49 9a 41 bd ed bf 03 3d a2 db 89 bd
       0.0208488 -0.04726628 0.032165457 -0.06731345
000110 e9 3f 27 3d d5 0f fd bd 7f a9 07 be 6c cd d6 3c
       0.040832434 -0.12356535 -0.13248251 0.026221
000120 8a 9a e2 bd 91 ae a0 3d b6 da 3d 3d 0f 45 0e 3e
       -0.11064632 0.07845796 0.046351157 0.13893531
000130 43 95 b5 3d 5b 7b 54 bd ae e6 48 3d 93 10 c4 bd
       0.0886636 -0.051875453 0.04904812 -0.09573474
000140 f7 bb 01 be d1 cb 6c bd 00 fb 4c 3d 11 2b 07 be
       -0.12669359 -0.057811562 0.05004406 -0.13200022
000150 db 54 00 3d 6e 1e f6 bd cd fe b4 3b 8c d3 7c bd
       0.031330924 -0.12017523 0.0055235387 -0.061725184
000160 e1 91 01 3d 09 72 a8 bd 77 38 57 bd ec 84 1b 3d
       0.03163326 -0.082248755 -0.052544083 0.03796856
000170 6e d7 bd bc 57 de c1 3d d5 f5 49 bd 8c b9 e2 3c
       -0.023174014 0.09466236 -0.04930671 0.027676366
000180 34 f5 33 bd ed bd 4e 3b 97 0d c9 bd c3 4b ba 3d
       -0.043935016 0.003154631 -0.09817045 0.09096482
000190 8f 5b 0a be 44 2c 02 3e f5 63 b3 bd 1d 4a 52 bd
       -0.1351149 0.12712198 -0.087593 -0.05134021
0001a0 0b a1 97 bd 65 c5 2c 3e d2 fe 90 bd 6f 57 66 bd
       -0.074037634 0.16872175 -0.07079853 -0.056235727
0001b0 39 19 bf 3d 50 17 bf 3b da 2d 6a bd 25 29 56 bd
       0.09330983 0.0058316365 -0.057172634 -0.052285332
0001c0 17 0f 95 3c d4 a8 44 bd 8b a9 4b 3c 02 ca fa 3d
       0.018195672 -0.04801257 0.012430559 0.12245561
0001d0 cb d1 e9 bc 39 06 d5 bd a4 8d 58 3d bc 25 da bd
       -0.02854242 -0.104015775 0.052869454 -0.106517285
0001e0 6d 03 22 bd 1e 99 58 3d 7b 4f c9 3d 35 7a 78 3c
       -0.03955405 0.0528804 0.09829613 0.015165855
0001f0 2a 24 71 3c 5a 3d a0 3a 1b 46 aa bc 0c 07 9b bd
       0.014718095 0.0012225315 -0.020785382 -0.075697035
000200 3b bc ca 3d 09 30 0e be ce 22 aa bc fc 63 03 bd
       0.09899183 -0.13885511 -0.02076855 -0.032077774
000210 9c 41 b8 3d 9c ca e5 3d b9 cd f7 bd 54 7a 01 3c
       0.08996889 0.11220285 -0.12099785 0.0079027
000220 5e 3f 35 3c cb b5 f0 3b 61 29 32 be 6f c5 98 bd
       0.011062471 0.00734589 -0.17398597 -0.074595325
000230 aa c5 20 3d 60 f1 aa 3d f4 b1 a2 3d 59 79 a9 3d
       0.039251007 0.0834682 0.07944098 0.08275098
000240 8a 2d c6 bd b1 d7 d5 3d 2b 41 f9 bd a0 a5 c1 bd
       -0.09676655 0.104415305 -0.12170633 -0.094554186
000250 1b 46 5b 3c 93 b5 cb bd 41 30 61 3d 45 91 00 3e
       0.013383414 -0.09946742 0.05497766 0.12555416
000260 cd e1 14 be 20 89 17 be f1 15 3d 3c b6 0d 31 3d
       -0.14539261 -0.14798403 0.011540876 0.043225966
000270 90 bd 0e bd 8b 04 9e bd 81 39 d1 3d 3b 55 c7 3a
       -0.03484875 -0.0771571 0.10216046 0.0015207896
000280 e0 69 11 bc 46 9b 8e bd cd 1c 07 3c ba 11 0d 3e
       -0.00887534 -0.0696321 0.008246613 0.13776293
000290 ba c7 8c bd b3 b7 16 bd 8e 21 df bd f8 8c 45 3c
       -0.06874032 -0.036796283 -0.10895072 0.012057535
0002a0 49 59 9c bc 6d 7c 02 be 23 d5 d0 bd 4b 8f 30 3d
       -0.019085543 -0.12742777 -0.101969026 0.043105405
0002b0 02 70 88 3d 72 84 c1 bb ae 40 fd 3d 19 6a ef 3d
       0.06661989 -0.0059056813 0.12365852 0.116901584
0002c0 1f 42 21 bd 9e 86 0c 3e f0 74 6d 3d 07 a0 8e bd
       -0.0393697 0.13723227 0.05797285 -0.069641165
0002d0 27 65 cd 3c a5 bd 04 be de 9b 22 bd b8 c1 ed bd
       0.025072647 -0.12962969 -0.039699428 -0.116092145
0002e0 cf ce 99 bc d8 25 06 bc 78 55 68 bd 56 5f 3e ba
       -0.018775372 -0.008187734 -0.056722134 -0.0007262131
0002f0 d1 f6 0e 3d 93 17 ec 3c da f9 48 bd 2b 19 ae bc
       0.03490335 0.028819835 -0.049066402 -0.021252235
000300 4a 03 92 bd c2 43 98 3c 69 e3 8b 3d 64 ca 9e bd
       -0.071295336 0.018586997 0.068304844 -0.07753447
000310 d3 ed 20 bd 17 db 67 3d 2c dd 1f bd 6a c5 42 bd
       -0.039289307 0.056605425 -0.039029285 -0.04755155
000320 20 8b e3 3d 3c 8f cb bc 98 af c4 bd 25 f9 e3 bd
       0.1111052 -0.024848573 -0.09603804 -0.11131505
000330 25 58 de 3b a2 dc f9 39 b5 bb 1a 3d 12 8e 24 bd
       0.00678541 0.00047657365 0.037776668 -0.04017455
000340 cf d6 df 3c f5 9d 67 3d f9 35 e1 bd 23 03 c8 3d
       0.027324108 0.056547124 -0.109966226 0.09766223
000350 86 00 ea bc ea 96 0f bd 8b 41 5c 3c 9c 9c b9 3d
       -0.028564703 -0.035056032 0.013443361 0.09063074
000360 83 ad 23 be ac ec 86 b9 1a 1a bd bd a3 e7 8d bd
       -0.15984158 -0.00025734806 -0.09233494 -0.06928947
000370 cd 9a 1a 3d 4b 30 29 3c c3 6f db 3d 77 97 84 bd
       0.037745286 0.010326455 0.10714676 -0.06474202
000380 3c 90 81 3d 87 10 c3 3d 61 aa 1c 3e b7 91 c8 3d
       0.06326339 0.09524637 0.1529937 0.09793418
000390 a8 74 77 bc 3a 8b d6 3d cd 1c 80 3b eb fa 11 3d
       -0.015103497 0.10475774 0.0039096833 0.035639685
0003a0 bc 14 89 bd ee eb 00 bd 7b aa cb 3d 02 ee 70 3d
       -0.06693408 -0.031475 0.09944626 0.058820732
0003b0 5a 19 cb 3d bc 62 34 3d 63 f6 4b bd 48 53 84 bb
       0.09916945 0.044039473 -0.04979552 -0.004038248
0003c0 3d c1 de bd 2a d5 a8 3d e1 d3 dc bc 53 99 cb 3d
       -0.10876701 0.08243783 -0.0269565 0.09941354
0003d0 6e cf e1 3c 6d 25 0d bd 29 c1 a4 3d f1 8b 0c 3a
       0.02756473 -0.03445952 0.08044655 0.0005361429
0003e0 91 e0 93 bd 40 aa 64 3d ff 7b b3 3c 64 e7 f7 3d
       -0.07220567 0.055826426 0.021909712 0.12104681
0003f0 1f 2b 1f 3d ad 7a 29 3e 1c de ab 3c 3f 55 20 3e
       0.038859483 0.16550703 0.020979933 0.15657519

conv_2.conv.0.bias f4 [24]
000000 b2 54 50 3d 92 a6 55 3b 61 7e dd bd d3 a2 fd bd
       0.05086202 0.0032600504 -0.108151205 -0.12384572
000010 d0 ec 8e bc ba cb 0b 3e c3 96 a4 bc 6f 07 cc 3d
       -0.017446905 0.13651934 -0.02009142 0.09962355
000020 f5 47 0c be 17 9e ed 3d cf 71 b7 3d 01 a5 9f 3c
       -0.13699324 0.11602419 0.08957254 0.01948786
000030 55 fe 92 3d 05 28 38 3d c6 8c 32 3b 92 d6 3b 3d
       0.07177416 0.04496004 0.0027244552 0.045858927
000040 c6 b0 cb 3d 11 0a 86 3d 73 f4 f3 3d d4 7a 08 3e
       0.09945826 0.06544889 0.11911859 0.13328105
000050 b3 e7 6f bc 1c d7 f3 3c c0 e1 b0 3d a8 f1 9e bd
       -0.014642644 0.029765658 0.086368084 -0.07760936

conv_2.conv.1.weight f4 [24]
000000 54 e4 90 3f 5f 9d 72 3f 96 c0 8c 3f 62 f2 78 3f
       1.131968 0.9477138 1.0996273 0.97244847
000010 a0 2c 78 3f 86 4d 71 3f 98 66 8c 3f 89 42 8d 3f
       0.9694309 0.94258916 1.0968809 1.103593
000020 2a 61 73 3f 9e 55 7e 3f d2 d2 8b 3f 6a 5c 71 3f
       0.95070136 0.9934939 1.0923712 0.9428164
000030 16 56 74 3f e8 95 76 3f 57 08 72 3f 31 d3 8b 3f
       0.95443857 0.9632249 0.94543976 1.0923826
000040 1b 2d 80 3f af 2c 91 3f 17 aa 71 3f 28 b5 73 3f
       1.0013765 1.1341761 0.9440016 0.951983
000050 ca c4 70 3f f9 09 8f 3f 8c 6a 8c 3f fa 19 8d 3f
       0.94050276 1.1174918 1.0970016 1.1023552

conv_2.conv.1.bias f4 [24]
000000 53 d0 fa 3d 18 85 58 bd 7f 62 c4 3d 99 42 f0 bc
       0.12246766 -0.052861303 0.09589099 -0.029328631
000010 d4 a5 0f bd 1e e2 81 bd bf ca c2 3d 1a 17 cf 3d
       -0.035070255 -0.063419566 0.09511327 0.10111828
000020 e5 18 51 bd eb 0d 00 bc 68 6a c2 3d 77 62 73 bd
       -0.051049132 -0.007815818 0.09492952 -0.059420075
000030 63 f9 2f bd f9 09 16 bd 38 05 64 bd 9f 19 b6 3d
       -0.042962443 -0.036630604 -0.05566904 0.088916056
000040 df 0a dc b8 8d 50 02 3e 3e dc 78 bd 24 45 55 bd
       -0.000104924424 0.1272604 -0.060756914 -0.05206789
000050 65 7e 7e bd 48 dc dc 3d d6 dc b5 3d af 11 c1 3d
       -0.062132258 0.10784203 0.08880012 0.09427201

conv_2.conv.1.running_mean f4 [24]
000000 20 29 d1 3e f3 3a aa be d3 f1 c1 be f0 e1 3e bf
       0.40851688 -0.332481 -0.3787981 -0.74563503
000010 be 4b f8 3e 22 60 36 3f b3 e4 05 bf 67 a9 b4 3e
       0.48495287 0.7124044 -0.5230209 0.35285494
000020 13 22 26 bf e0 20 f1 3e b5 85 e1 3e 19 d3 9b be
       -0.64895743 0.47095394 0.44047323 -0.30434492
000030 b3 ce a8 bf e5 98 ab be 48 31 72 bf 47 a0 dd be
       -1.318808 -0.33515087 -0.9460645 -0.43286344
000040 4e 81 93 bf 3f 6a e8 be fc 6e f9 3a 9f 26 c6 3e
       -1.1523836 -0.4539356 0.0019030268 0.3870134
000050 ee 40 0b 40 b2 40 ef 3e 36 99 94 be ed be 90 3e
       2.175838 0.46729046 -0.2902314 0.28270665

conv_2.conv.1.running_var f4 [24]
000000 20 15 02 3e 07 07 03 3e a8 64 00 3e 5b b7 ad 3d
       0.12703371 0.1279565 0.12538397 0.08482238
000010 90 28 90 3d 3a 8b 6f 3e d8 0c 15 3e 83 51 51 3e
       0.07038987 0.23392954 0.14555681 0.2044125
000020 2b ef 58 3e b6 ab b1 3d 46 36 77 3e 1c e0 86 3e
       0.21184985 0.086753294 0.24141797 0.26342857
000030 8b b8 6e 3e 20 34 13 3e 98 d7 18 3e d6 bd 0c 3e
       0.23312585 0.14375353 0.14925992 0.13744292
000040 12 88 24 3e 23 53 87 3e 0e cf 28 3e 83 a5 9b 3e
       0.16067532 0.26430616 0.16485235 0.30399713
000050 d0 4b b0 3e e4 3c d3 3d ae 94 2e 3e 52 f1 52 3e
       0.3443284 0.10314348 0.17048904 0.20599869

flaten.conv.0.weight f4 [1, 24, 1, 1]
000000 0b ac a1 bd 4b b1 56 3d 39 8a 67 be a5 1f 72 bc
       -0.07894143 0.052415174 -0.22611322 -0.014778052
000010 46 de d1 bb 08 fd f0 3d c4 48 5c be e6 4a 19 be
       -0.006404671 0.11767012 -0.21512133 -0.14969978
000020 43 2e fe 3c 7c 07 f6 bc d3 7e 5f be 17 60 c1 3d
       0.031027919 -0.030032866 -0.21825723 0.09442156
000030 85 47 1e bb 8a a5 f9 bb a3 df 4f 3d 2b b2 66 be
       -0.0024151516 -0.0076186107 0.050750386 -0.22528903
000040 56 f6 11 bd 28 c4 c9 bd 6e 27 c4 3d f1 ab be 3c
       -0.035635315 -0.09851867 0.09577833 0.023275347
000050 51 2c 0f 3e 0f 20 0b be 22 6d 80 be a0 a3 37 be
       0.13981749 -0.13586448 -0.25083262 -0.17933512
