model/CP1_val_0.039966.pth (torch, 11546 bytes, 13 tensors)

conv_1.conv.0.weight f4 [12, 2, 2, 2]
000000 b0 16 28 3e ff 26 38 be 6d f7 d7 be c8 e3 44 be
       0.16414905 -0.17983626 -0.42180958 -0.19227517
000010 23 3c fc bd 72 4f ab 3d 3d 1f c2 bc 49 b1 a5 3d
       -0.12316158 0.08364762 -0.023696536 0.08090455
000020 62 a8 a3 3e 6b 3a 04 3d 68 45 4b 3e 73 62 63 3e
       0.31964403 0.032282274 0.19850695 0.22205524
000030 61 47 aa be 13 e0 af be 26 d5 92 be 51 e7 9d bd
       -0.33257583 -0.34350643 -0.28678244 -0.07710136
000040 e1 fc ce be 9f 11 96 be 82 e1 c9 3c dc 0b cf bc
       -0.40427306 -0.2931032 0.024643663 -0.02527421
000050 2e 49 21 be 6e 5b cc 3c e6 28 57 3d 83 d2 34 3e
       -0.15750572 0.02494594 0.05252924 0.17658429
000060 65 c4 2d be d6 0a 1a 3e 0e 4a df bd 40 f0 a8 3e
       -0.1696945 0.15043196 -0.10902797 0.32995796
000070 ad 5a d5 3d d5 f8 ac bd 0f 6e c4 3e c9 5c a4 3d
       0.10417686 -0.084458984 0.38365218 0.0802551
000080 8a 7c f5 3d d2 75 67 3e 5c c2 9b 3e 50 d1 a6 bd
       0.119866446 0.22603539 0.30421722 -0.08145392
000090 d8 0c 97 3e cf 82 61 be c0 04 d4 bd 08 7f b8 3d
       0.29501987 -0.22022556 -0.103524685 0.09008604
0000a0 85 78 db 3a 9d 17 9a be 85 2c 55 3e 7a c7 f5 3d
       0.0016744292 -0.3009614 0.20817764 0.12000938
0000b0 22 3b da 3d 5f 12 a2 be ac 40 6e be 24 1e 36 3e
       0.1065581 -0.3165464 -0.23266858 0.17784935
0000c0 04 5d ac 3d 11 1c 50 be c9 17 a3 bd 8e ef b3 bd
       0.08416179 -0.20323206 -0.07963521 -0.08785926
0000d0 ef 02 a8 3d d1 79 c3 be 91 bc 9e 3d ec 6f 28 3e
       0.082036845 -0.38178876 0.0775081 0.16448945
0000e0 fe 05 59 be 4e 0c 38 3e eb 3c 83 3e 9c e8 a4 3e
       -0.21193692 0.17973444 0.25632414 0.32208717
0000f0 74 4d bc bd e5 ba 2d 3d a1 e2 a5 3e 6d 3f 85 be
       -0.091944605 0.042414565 0.32399467 -0.26024953
000100 6f dc 4b 3e 32 87 73 be bd 85 4b 3e d2 d3 68 3e
       0.19908307 -0.23782042 0.19875236 0.22737053
000110 f3 66 6c be fd 96 99 be 7e 9e 93 be f2 d9 08 bd
       -0.23086147 -0.29998007 -0.28831857 -0.033410974
000120 b9 9a b6 3d 2d c9 7e 3e 72 e2 15 be 56 a8 84 be
       0.0891623 0.2488143 -0.14637163 -0.2590968
000130 98 92 2d be f8 5b 82 be 1e 28 ba be 1b d0 60 be
       -0.16950452 -0.25460792 -0.36358732 -0.21954386
000140 e9 a1 51 3d 68 41 bd 3c 3d dd 9b be 97 a1 b3 3d
       0.0511798 0.023102477 -0.3044223 0.08771055
000150 71 cf 47 be ce 59 37 3e cf 21 e4 be fb e3 47 be
       -0.19512726 0.17905352 -0.44557044 -0.19520561
000160 3d fc e3 bd ee 7f 8d 3c 5b 7d a2 3e 3a ec 8c be
       -0.11132095 0.017272916 0.31736264 -0.27523977
000170 f4 a2 1f be f6 70 b6 be 16 4f 01 be e7 69 2f 3d
       -0.15589505 -0.35633057 -0.12627825 0.042825606

conv_1.conv.0.bias f4 [12]
000000 63 3c 82 be 7c 04 4d be 41 fe e7 ba 80 32 6f bc
       -0.25436696 -0.20021242 -0.0017699675 -0.0145994425
000010 b9 44 45 be a5 e4 01 be d8 61 9e bc 12 58 a2 bd
       -0.19264497 -0.12684877 -0.019333765 -0.07926954
000020 75 23 8a 3e 59 c0 a3 be bd 70 98 be 3e 77 b0 3e
       0.26980177 -0.31982687 -0.29773512 0.34465975

conv_1.conv.1.weight f4 [12]
000000 f7 a8 7c 3f 51 d6 79 3f 44 85 81 3f cb 52 6f 3f
       0.9869532 0.97592646 1.0118794 0.9348571
000010 ff 9c 6e 3f 9d 15 6a 3f 88 0e 80 3f d4 86 64 3f
       0.9320831 0.9143923 1.0004435 0.8926823
000020 6b 54 86 3f 09 88 8a 3f 5c da 8f 3f 01 c3 83 3f
       1.0494512 1.0822765 1.1238513 1.0293885

conv_1.conv.1.bias f4 [12]
000000 76 01 8f bd e1 d2 28 be ce 44 25 bd 9d d1 06 3d
       -0.069827005 -0.16486694 -0.04034882 0.032914747
000010 58 d6 01 3e 27 ca 1d bd 39 12 51 bb 95 05 6b 3d
       0.12679422 -0.038522866 -0.003190173 0.05737837
000020 e3 72 0c bd eb 47 fd 3c 81 61 f4 3c 26 20 f0 bc
       -0.034289252 0.030918082 0.02983165 -0.029312205

conv_1.conv.1.running_mean f4 [12]
000000 54 cd 23 c2 67 b4 d5 c1 f7 27 1d c2 96 42 47 42
       -40.950516 -26.713087 -39.28903 49.815025
000010 28 9b 29 42 5c 22 90 c1 e9 e1 ba c1 38 c2 15 42
       42.40152 -18.016777 -23.360308 37.439667
000020 48 5e 17 c2 c1 1e a1 c2 8b aa 6c c2 87 60 3f c2
       -37.84207 -80.56007 -59.166546 -47.844265

conv_1.conv.1.running_var f4 [12]
000000 6e 16 6f 44 e1 f9 d5 44 1e 7b d1 44 1a 04 da 44
       956.35046 1711.8087 1675.8474 1744.1282
000010 84 b3 98 44 8f 05 8e 44 84 45 8c 44 56 d6 a8 44
       1221.6099 1136.1737 1122.1724 1350.698
000020 23 cd df 44 9d 72 67 45 a0 b7 4f 45 de db d8 44
       1790.4105 3703.1633 3323.4766 1734.8708

conv_2.conv.0.weight f4 [24, 12, 2, 2]
000000 ee 9a 31 3e b2 82 68 3d 78 26 7b bc 50 47 50 3c
       0.17344257 0.056765266 -0.015328996 0.012712315
000010 2c 6c f7 bd 6b 37 b2 bc 17 93 f7 bd 27 fb d8 3d
       -0.12081179 -0.021754941 -0.12088602 0.105947785
000020 72 d4 b8 bc ef 2d ff 3c d0 16 72 bc d9 4a ab 3d
       -0.02256224 0.031149833 -0.014775947 0.083638854
000030 49 51 19 bc a5 d2 6c bd 4e c0 29 bd 71 49 f4 bc
       -0.009357759 -0.057818074 -0.04144316 -0.029820176
000040 f4 7e 8f bd d5 25 84 bd e8 2d c8 3c 01 d2 43 bd
       -0.07006636 -0.064525284 0.024435952 -0.047807697
000050 55 7b 9a 3d c5 1e 03 3c 30 63 10 bd 1d 09 32 bd
       0.07543055 0.0080029415 -0.035250843 -0.043465722
000060 39 10 ab b9 c4 98 ff 3d 2c 1f ae 3c af 54 b9 3d
       -0.00032627748 0.124803096 0.021255098 0.09049355
000070 f3 1c e5 3c 5d 37 15 bd 41 20 16 3d 55 a0 72 3d
       0.027967906 -0.03642975 0.036651853 0.059234936
000080 88 cf 5c 3d 85 a3 be 3c e4 fb f3 bb ef f8 1a bd
       0.053908855 0.023271332 -0.007445799 -0.037835058
000090 4d 12 98 3c bd 3a 0c be c6 b1 4c 3d 74 43 0a be
       0.018563414 -0.13694282 0.049974225 -0.13502294
0000a0 56 af 29 3e 52 f1 5d bd 36 23 63 3e 0e 67 80 bd
       0.16570792 -0.05418522 0.221814 -0.06269656
0000b0 0c 48 43 3c a1 6f 3c 3e 42 f1 26 bc 6d 67 b9 bd
       0.011919033 0.18401958 -0.010189356 -0.0905293
0000c0 d4 76 d9 bc 29 26 83 3d 0c 13 82 bd 59 c4 f1 bd
       -0.02654592 0.06403763 -0.06351289 -0.118050285
0000d0 d2 6f 1b be fe e5 2a 3b a1 f7 2a be 3c 89 72 3d
       -0.15179375 0.0026077027 -0.16696025 0.05921291
0000e0 f9 f5 d2 3d 66 aa 49 bd db c0 25 3e 82 3f 0d 3d
       0.10300822 -0.04923477 0.1618685 0.034484394
0000f0 fc 0a 1d 3d 75 3b 54 3d a4 28 2a 3d 5a 9d eb 3c
       0.038340554 0.051814515 0.041542664 0.028761555
000100 72 b4 34 3c c3 a8 4d bd 0c 7a b9 3c 27 79 8d bd
       0.01102935 -0.05020977 0.022641204 -0.069078736
000110 b4 b2 2d 3d e8 dd f6 bd 30 b2 07 be 3d 54 9a 3c
       0.042406753 -0.12054044 -0.13251567 0.018838996
000120 e2 48 d9 bd 6a 87 ae 3d 1b aa 3c 3d b1 e3 05 3e
       -0.106096044 0.08521922 0.046060663 0.13075139
000130 d8 cc 9d 3d dc 46 60 bd 0e 49 27 3d 5a 3c be bd
       0.077050865 -0.054755077 0.040841155 -0.09288855
000140 be 04 01 be 4e 95 82 bd 17 f4 38 3d 67 f2 0c be
       -0.12599465 -0.06376134 0.045154657 -0.13764344
000150 db ea 04 3d d7 27 01 be 3e 10 8f 3b 82 09 8f bd
       0.032450538 -0.12612854 0.00436595 -0.06984235
000160 20 a3 07 3d bf c3 af bd 84 58 51 bd 54 67 01 3d
       0.033114552 -0.085822575 -0.051109806 0.031592682
000170 6c 5d b3 bc 0a db bc 3d 96 a4 4d bd c8 6f b8 3c
       -0.021895133 0.09221466 -0.05020579 0.022514239
000180 ef ed 30 bd ea 5d 3f 3b 37 bf d2 bd 50 53 ad 3d
       -0.04319566 0.0029200264 -0.102903776 0.08463156
000190 dc 30 15 be 66 36 e3 3d ce 71 b3 bd 4a 65 78 bd
       -0.1456942 0.1109436 -0.08761941 -0.06064347
0001a0 ba de 5f bd 85 9a 2b 3e 39 a3 93 bd 29 80 2e bd
       -0.054655768 0.16758163 -0.072088666 -0.04260269
0001b0 0c 12 a7 3d c7 e3 2d 3b ac 03 45 bd 2d b9 13 bd
       0.08157739 0.002653347 -0.048099205 -0.03606527
0001c0 d1 36 69 3c a1 44 16 bd a1 1f 8d bb 93 b0 ed 3d
       0.014234261 -0.036686543 -0.004306749 0.116059445
0001d0 ac a9 2d bd b8 11 d5 bd 4f d7 61 3d 9e 9f c6 bd
       -0.04239814 -0.1040377 0.055136975 -0.09698413
0001e0 46 0e 1b bd 54 9d d9 3c 22 ba d7 3d b5 00 ee 3c
       -0.03785541 0.026564278 0.10533549 0.029053072
0001f0 9f 65 d0 3a f0 93 fe bb fa 62 d1 bc 93 ab 66 bd
       0.0015899426 -0.0077691004 -0.025559891 -0.05631597
000200 b5 52 ca 3d b0 20 14 be c1 03 b9 bc ea 79 05 bd
       0.09879056 -0.14465594 -0.022584798 -0.03258697
000210 2e 1b 92 3d a4 6d dc 3d 99 96 0f be 4d 32 95 3c
       0.0713409 0.107631 -0.14022292 0.018212462
000220 10 3f 21 3c f1 95 98 3a c1 b7 47 be 64 60 96 bd
       0.009841695 0.0011641366 -0.1950369 -0.07342604
000230 61 63 33 3d 02 b5 88 3d dd 72 a9 3d 08 22 b4 3d
       0.043795947 0.066751495 0.082738616 0.087955534
000240 10 75 ba bd 77 98 f0 3d 17 29 01 be a6 3e cb bd
       -0.09104359 0.1174783 -0.12613331 -0.099240586
000250 6a 51 ae bc 13 5b 06 be 62 b0 b1 3c 70 f2 b6 3d
       -0.021279056 -0.1312068 0.021690551 0.0893296
000260 ba 39 00 be 1d 31 03 be 51 61 a9 3c 97 bd 76 3d
       -0.12522021 -0.12811704 0.020676287 0.0602394
000270 34 42 ba bc fe 03 99 bd 3d 25 01 3e f7 63 85 3c
       -0.022736646 -0.074714646 0.12611862 0.016283019
000280 f9 bc 7d bc 18 b2 b3 bd b3 a0 a7 3b 31 28 03 3e
       -0.015486949 -0.08774203 0.0051155924 0.128083
000290 6f a3 89 bd ec bb 1a bd 71 64 e8 bd f3 a8 5e 3c
       -0.067206256 -0.037776873 -0.11347283 0.013590085
0002a0 39 7b 21 3c 75 b0 d9 bd aa 1b 98 bd 22 03 9b 3d
       0.009856039 -0.1062936 -0.074271515 0.07568957
0002b0 39 8f 75 3d 80 b8 c4 bc b3 c8 f5 3d 62 14 ca 3d
       0.05995104 -0.024013758 0.12001171 0.09867169
0002c0 65 7c 4f bd 02 64 fa 3d db ca e0 3c f0 b3 c7 bd
       -0.05065574 0.12226106 0.027440479 -0.09751117
0002d0 f4 2b e4 ba 4c 3d 0c be fa 47 90 bd e0 d3 0f be
       -0.0017408119 -0.13695258 -0.070449784 -0.14045668
0002e0 8e b9 31 bd 07 ca 94 bc 70 a2 b4 bd 8c 66 ad bc
       -0.04338985 -0.01816274 -0.08820045 -0.021167062
0002f0 a3 be 3b 3d 72 7d 0f 3d be 19 84 bd 81 3a c6 bc
       0.045836102 0.035031743 -0.064502224 -0.024197819
000300 22 dd a5 bd 12 8a 8a 3c c2 7a 84 3d 20 5b a4 bd
       -0.08098818 0.01691154 0.06468727 -0.08025193
000310 30 57 77 bd 39 81 1f 3d 66 a9 72 bd a5 52 8b bd
       -0.060385883 0.038941596 -0.059243582 -0.068028726
000320 52 e8 ef 3d e5 1b 92 bc b9 47 d4 bd f1 23 e1 bd
       0.117142335 -0.017835567 -0.103652425 -0.109931834
000330 9c 21 d9 3c 9b 9e 77 3c 07 7c 7c 3d d1 3b f4 bc
       0.026505284 0.015113498 0.06164172 -0.029813679
000340 73 b2 24 3d 08 ab 79 3d f1 63 d0 bd 4f cb e2 3d
       0.040209245 0.060954124 -0.10175312 0.11073934
000350 4e 94 ca bc d8 5a f0 bc 24 e6 68 3b a2 2e cb 3d
       -0.02472892 -0.029340193 0.0035537565 0.09921004
000360 8a 7b 16 be 83 c7 91 3c 8f 7c aa bd a6 4c 4a bd
       -0.14695564 0.01779533 -0.08324539 -0.049389504
000370 de 55 3c 3d 69 09 94 3c 99 4a fe 3d 10 85 95 bd
       0.045980327 0.018070893 0.12416572 -0.0730077
000380 6c b2 4c 3d 1e 53 b3 3d 1f 1a 07 3e d4 9e a7 3d
       0.049974844 0.08756088 0.13193558 0.08184591
000390 0b 72 22 bd f2 2a ba 3d cc 3d 21 bc b8 52 ac 3c
       -0.03965954 0.090902224 -0.009841394 0.021035537
0003a0 48 c5 b2 bd 92 02 64 bd 7b 93 b5 3d f5 d0 53 3d
       -0.08729035 -0.055666514 0.0886602 0.05171295
0003b0 41 ed c6 3d 77 ca 4c 3d 8c d2 88 bd 09 0a 2a bc
       0.09713221 0.049997773 -0.06680784 -0.010378369
0003c0 d1 92 d7 bd 9d 79 a0 3d 3d 24 c4 bc 65 86 ce 3d
       -0.1052605 0.07835696 -0.023943061 0.100842275
0003d0 b0 9e 3e 3c 62 13 5a bd 41 82 80 3d dc 32 72 bc
       0.011634514 -0.05324114 0.06274844 -0.014782634
0003e0 18 72 96 bd ba 10 5c 3d a3 1a ee 3c 92 46 f8 3d
       -0.073459804 0.05372689 0.029065436 0.12122835
0003f0 bc 92 41 3d a0 d8 2d 3e 2b 69 12 3d 5a 8d 1d 3e
       0.047259077 0.16977167 0.035744827 0.15385953

conv_2.conv.0.bias f4 [24]
000000 fb 61 4e 3d a0 31 5a 3b e6 5a dd bd 7e df fd bd
       0.05038641 0.003329374 -0.10808353 -0.123961434
000010 26 f9 8f bc 70 da 0b 3e 08 fa 98 bc 2a 8a cb 3d
       -0.017574858 0.13657546 -0.018673912 0.09938462
000020 44 57 0c be d4 ee ed 3d a8 0d b6 3d 35 15 a0 3c
       -0.13705164 0.116178185 0.088893235 0.019541362
000030 e0 ff 92 3d 50 2f 38 3d de 8b 2c 3b d7 8d 3d 3d
       0.071777105 0.044966996 0.0026328485 0.046277847
000040 0a 7e cb 3d 35 11 86 3d 68 f3 f3 3d 02 77 08 3e
       0.099361494 0.06546251 0.119116604 0.13326648
000050 fa 28 67 bc b8 5e ef 3c 0d b7 b0 3d f1 dc 9e bd
       -0.014108891 0.02921997 0.08628664 -0.07756985

conv_2.conv.1.weight f4 [24]
000000 3c 68 9d 3f c3 75 70 3f ce ca 93 3f 2c a8 7e 3f
       1.2297435 0.9392969 1.1546266 0.9947536
000010 fc bf 79 3f 6b 94 6d 3f b0 ec 92 3f 96 da 95 3f
       0.9755857 0.9280459 1.1478481 1.1707332
000020 04 fa 71 3f 51 27 87 3f 4d 34 92 3f 83 bd 6e 3f
       0.9452212 1.0558873 1.1422211 0.9325792
000030 c1 4f 77 3f 39 13 7a 3f eb f6 6f 3f bb 42 92 3f
       0.9660607 0.9768558 0.9373614 1.1426615
000040 b8 92 8a 3f 53 e5 9a 3f e2 71 6f 3f 68 9d 72 3f
       1.0826025 1.2101234 0.93533146 0.9477143
000050 59 41 6e 3f 0f d5 97 3f d7 e7 92 3f c9 ee 93 3f
       0.9306846 1.1861895 1.1477002 1.1557246

conv_2.conv.1.bias f4 [24]
000000 35 10 54 3e 18 63 81 bd 51 9a 13 3e 81 77 55 bc
       0.20709307 -0.06317729 0.14414336 -0.01302898
000010 c6 46 da bc 60 25 a9 bd 8d 08 0e 3e 6c 37 24 3e
       -0.026645076 -0.08259082 0.1387045 0.16036767
000020 4c a7 6d bd ac bd 51 3d fb 1f 0e 3e c9 3d 99 bd
       -0.058020875 0.051206276 0.13879387 -0.07482488
000030 f0 ca 04 bd f6 ac ce bc 80 93 88 bd bf 83 05 3e
       -0.0324201 -0.025228959 -0.066687584 0.13038538
000040 b4 73 8c 3d 1d ac 45 3e 55 ae 9e bd 45 c3 6a bd
       0.06858006 0.19303937 -0.07748095 -0.05731513
000050 7e d1 9e bd bf f9 26 3e 2b 5b 04 3e 4d cc 0d 3e
       -0.07754801 0.16306208 0.12925403 0.13847466

conv_2.conv.1.running_mean f4 [24]
000000 00 62 01 3f c7 88 b2 be 67 b0 fe be 1d e1 55 bf
       0.5054016 -0.34869978 -0.4974396 -0.8354662
000010 a4 60 f8 3e ef cd 09 3f 4d 9a 0a bf b5 13 ff 3e
       0.4851123 0.53829855 -0.54141694 0.49819723
000020 59 65 10 bf 4b 1b 6a 3e 82 90 f6 3e 4a 3a 0c be
       -0.56404644 0.22861974 0.48157126 -0.1369411
000030 35 79 9c bf c2 f9 d0 be 20 64 36 bf 65 f1 ea be
       -1.222449 -0.4081555 -0.7124653 -0.45887294
000040 56 f9 81 bf a9 1b 06 bf b1 f4 0d 3e c7 e3 af 3e
       -1.0154216 -0.52385956 0.13862874 0.34353468
000050 50 59 f6 3f a4 75 0a 3f d3 db 95 be ea b4 c2 3e
       1.9246006 0.54085755 -0.29269275 0.3802865

conv_2.conv.1.running_var f4 [24]
000000 d8 4e dc 3d e1 85 cd 3d 0f c2 e4 3d bd 6d 05 3e
       0.10757226 0.10035301 0.11169826 0.13030143
000010 d9 f0 ac 3d ae 60 8d 3e 65 5b ea 3d 2d 8c 3b 3e
       0.084443755 0.27612823 0.114432134 0.18315192
000020 7b 0e 7a 3e ab bb d7 3d a1 a8 54 3e 77 87 70 3e
       0.24419586 0.10533842 0.20767452 0.23489176
000030 c0 5e 72 3e dc 5c f7 3d 4a 98 ce 3d ab ef 0b 3e
       0.23668957 0.120782584 0.100876406 0.13665645
000040 9b 3e 97 3e 28 d5 48 3e a3 44 fc 3d c1 ce 9f 3e
       0.29539952 0.19612563 0.12317779 0.31212428
000050 31 18 50 3e 9d 36 a3 3d fb 01 fa 3d 68 c4 3e 3e
       0.20321728 0.07969401 0.12207409 0.1862961

flaten.conv.0.weight f4 [1, 24, 1, 1]
000000 84 f1 00 be 11 4d 12 3d be 79 8a be 9c 97 27 bd
       -0.12592131 0.035718028 -0.27046007 -0.04091607
000010 34 7c ac bc 15 9f c9 3d 80 e3 82 be 28 bd 48 be
       -0.021055318 0.098447956 -0.25564194 -0.19603407
000020 f7 ab 76 3c 45 38 88 bd 30 4b 84 be d8 3b a5 3d
       0.015055648 -0.066513576 -0.25838614 0.08068055
000030 88 ae 09 bd 09 00 0c bd db 68 0f 3d aa 31 88 be
       -0.03361371 -0.03417972 0.035012107 -0.2660039
000040 4a 9f 9f bd a2 cc 0e be 5d c8 ad 3d f0 97 aa 3a
       -0.07794054 -0.13945249 0.08485482 0.0013015252
000050 8d 59 03 3e 21 cb 38 be 53 f0 95 be 50 3f 60 be
       0.1282713 -0.18046238 -0.29284915 -0.21899152
