model/CP2_val_0.024082.pth (torch, 11546 bytes, 13 tensors)

conv_1.conv.0.weight f4 [12, 2, 2, 2]
00000000: 1ab4 123e 5f75 3abe eeaa e1be 3247 3cbe
00000010: d2ce d3bd 4c9e a03d a81c c5bc ecf6 c63d
00000020: 5e3e a43e d944 2a3d 3794 393e 5f49 5a3e
00000030: c689 abbe 6520 b0be adfd 99be df38 babd
00000040: cdbd d1be 9ec3 92be c108 713b bd8e cdbc
00000050: 1908 30be 0ccb 993c 78fc 1f3d 2f6c 303e
00000060: 5501 27be 50d4 1d3e 7521 bfbd 7e1b aa3e
00000070: cfd5 cc3d be0c adbd 5032 c63e 6a6d b23d
00000080: 46e8 043e 21d4 693e 2de7 9a3e dff3 9dbd
00000090: 381f 973e edf2 62be 9565 d0bd 92cc ac3d
000000a0: 008c 00bc 01ca a6be cead 403e 6b72 cb3d
000000b0: fca5 cd3d 33bc aabe 8138 74be 03fe 233e
000000c0: 4e17 953d acbb 56be a56e cabd 1def dfbd
000000d0: 8486 753d 91ab c7be 7eb3 653d 5206 153e
000000e0: c2e9 5cbe e31c 2e3e b6b3 893e e207 a33e
000000f0: a7c4 c0bd 58ee 0a3d 4719 a73e eaa8 82be
00000100: e8e9 4c3e 712f 6ebe 3bcd 303e 995d 653e
00000110: 3496 70be c32d 9fbe a8dc 9cbe 155e 77bd
00000120: 8f92 c13d 9b8f 813e d17f 0fbe 0121 76be
00000130: 9610 31be 0d8c 84be e26e c0be 1253 77be
00000140: 8cab 6e3d 673a d33c 7db7 97be 49d4 db3d
00000150: e821 48be 22eb 1a3e 503f f2be 44b7 3ebe
00000160: 827a dbbd 998a 9b3c 31d7 9d3e 7ddf 84be
00000170: cee5 2bbe 0bd5 c3be 2c7c f9bd f6bd 903c
0.14326516 -0.18208836 -0.44075722 -0.18386534 -0.10342182 0.07842693 -0.024061516 0.09715065
0.32078832 0.041569564 0.18122946 0.21317051 -0.3350355 -0.34399715 -0.30076352 -0.090928786
-0.4096512 -0.2866487 0.00367789 -0.025092477 -0.17190589 0.018773578 0.039059132 0.17228769
-0.16309102 0.15413022 -0.09332553 0.332241 0.10001718 -0.08449696 0.3871026 0.08712275
0.1297923 0.22834827 0.30254498 -0.0771253 0.29516006 -0.22162981 -0.10175625 0.08437456
-0.007845879 -0.32575992 0.18816301 0.09933933 0.10041425 -0.3334671 -0.2384968 0.16014867
0.07279836 -0.20970029 -0.09884385 -0.10934279 0.059942737 -0.38998082 0.05607938 0.14553192
-0.21573547 0.17003207 0.2689492 0.31841952 -0.094125085 0.03391871 0.32636473 -0.25519496
0.20011103 -0.23260285 0.17265789 0.22398986 -0.23494798 -0.310896 -0.30637097 -0.060392458
0.09451782 0.25304875 -0.14013602 -0.24036027 -0.17291483 -0.258881 -0.37584597 -0.24152783
0.05826907 0.025784684 -0.29632178 0.107338496 -0.19544184 0.15128759 -0.4731393 -0.18624598
-0.10716726 0.018986987 0.3082824 -0.25951758 -0.16786882 -0.38248476 -0.12181887 0.017668705

conv_1.conv.0.bias f4 [12]
00000000: 613b 82be 2c00 4dbe 38f8 e6ba fc3b 6fbc
00000010: d747 45be f6e4 01be d15c 9ebc 4b58 a2bd
00000020: b422 8a3e 35c0 a3be 9f71 98be 6377 b03e
-0.25435928 -0.20019597 -0.0017621582 -0.014601704 -0.19265686 -0.12684998 -0.019331368 -0.07926997
0.269796 -0.3198258 -0.29774186 0.34466085

conv_1.conv.1.weight f4 [12]
00000000: 08f2 7d3f c678 7a3f 45af 813f fcec 663f
00000010: 4e55 673f 2735 673f 43a3 823f 94cb 5e3f
00000020: e497 873f 24c9 8a3f 5c3c 903f 2036 833f
0.99197435 0.97840536 1.0131613 0.9020536 0.9036454 0.9031548 1.0206074 0.87029386
1.0593228 1.0842633 1.126842 1.0250893

conv_1.conv.1.bias f4 [12]
00000000: 918e b2bd 4951 63be 447d 71bd c4e3 933c
00000010: ad9b 153e 455f 23bd 0fed bebb 8c29 a73d
00000020: ab85 cfbd 458c 26bd 3434 73bc e98a a3bd
-0.08718599 -0.22198977 -0.058957353 0.018052943 0.14610167 -0.039885778 -0.0058265994 0.08162221
-0.10132917 -0.040661115 -0.014843989 -0.079854794

conv_1.conv.1.running_mean f4 [12]
00000000: e160 2ac2 6e5d f2c1 a722 35c2 9641 5642
00000010: 6f47 3242 79c1 d9c1 725e 07c2 f75b 1942
00000020: 033f 33c2 3cd0 a6c2 6a12 77c2 8509 53c2
-42.59461 -30.29562 -45.28384 53.56405 44.56976 -27.21947 -33.84223 38.33981
-44.811535 -83.40671 -61.767982 -52.759296

conv_1.conv.1.running_var f4 [12]
00000000: 60cf 7044 b7d1 e944 3e28 e444 8ef5 e244
00000010: 902a 9d44 1425 a744 bbf5 a044 0f47 af44
00000020: d4ba f844 afda 6f45 79dc 5845 140b f244
963.24023 1870.5536 1825.2576 1815.6736 1257.3301 1337.1587 1287.6791 1402.2206
1989.8384 3837.6677 3469.7795 1936.3462

conv_2.conv.0.weight f4 [24, 12, 2, 2]
00000000: e86b 243e 1fc0 813d 5835 19bc a385 bb3c
00000010: 2c41 05be 96b6 ddbc cfb3 febd 10c3 ce3d
00000020: c982 31bd 8156 003d 8ef0 88bc 3848 b83d
00000030: 09ae 26bc 56a0 3fbd 2f68 1abd c51b c7bc
00000040: 7ba1 68bd 3e2e 2ebd d0d8 023d e930 38bd
00000050: 5447 8a3d 4188 203c 583b 07bd 167d 1cbd
00000060: 7ce4 b93a 1e00 033e a47e 0c3d b128 cb3d
00000070: 42fc cd3c b4ab aebc e01d 2f3d b79b 3b3d
00000080: 8ebb 583d 2be9 003d 0358 30bc 31b4 31bd
00000090: 35ee 8d3c fd8b 12be 5720 433d 6a2b 16be
000000a0: ad3f 2a3e e026 3fbd 2269 633e fe07 5ebd
000000b0: 9c0d b23c 41ed 353e b348 66bc 82f1 b2bd
000000c0: e900 cabc 2472 873d 4df5 79bd 7339 f0bd
000000d0: 8ed5 1bbe d309 57bb 45d8 2dbe 6e30 643d
000000e0: 33e9 cf3d 4226 40bd 919f 263e 01dd 133d
000000f0: cbc1 153d 9f62 5c3d cb55 233d f85e ff3c
00000100: 3d95 c13b 29be 59bd 69be 8b3c c1a5 91bd
00000110: 9a2f 313d 7aec f2bd 1c92 07be 7e0a 873c
00000120: ce5d d5bd 9a7f b63d 7c69 423d 5500 033e
00000130: eb2d 923d bc82 6bbd e06c 153d 84f9 bdbd
00000140: 0532 00be c3d0 87bd 9f82 303d 0deb 0ebe
00000150: 8d34 093d d9b3 03be d33c 863b 8f88 96bd
00000160: 284c 053d 19e3 b3bd 5d1e 4fbd 9d5a ef3c
00000170: cfe9 afbc 668b ba3d 603d 4fbd fe4a a43c
00000180: 65a4 32bd 540b a83b 4c49 d4bd 4a5a a43d
00000190: 84a0 19be a8aa ce3d f173 b2bd 0b02 8bbd
000001a0: b5a9 2dbd da21 2e3e e4f5 94bd 258b 06bd
000001b0: cfe4 9c3d b675 103b 92df 35bd f8a8 05bd
000001c0: f326 4a3c 44ab d1bc bf71 6bbc 95da e63d
000001d0: 946c 3ebd 59e6 d1bd 8ba6 653d b180 c0bd
000001e0: 334b 0fbd 24f9 223c c778 f43d f0ab 283d
000001f0: 3b23 94bb e545 53bc 2f9c fcbc 87f6 54bd
00000200: f89d d03d fed7 14be 909d c9bc df15 11bd
00000210: f443 6b3d 3e0d cf3d 9e2e 15be b082 853c
00000220: e304 253c 541b 41bc 6b83 4ebe ed94 9abd
00000230: 617f 333d b051 793d 7b61 a93d a096 b43d
00000240: 4184 bcbd 4a7a f53d 4706 0dbe bdf2 dbbd
00000250: 8a44 06bd 8d82 10be 8f24 623c fb60 963d
00000260: d265 cabd a934 dbbd 9b30 5f3c 063b 903d
00000270: 608a afbc 7420 9bbd ca47 fa3d 894e 5b3c
00000280: 8100 96bc b2a0 b5bd 7507 dbbb e0ff e23d
00000290: 6d53 5cbd c2b8 09bd 6a85 ddbd 2910 2c3c
000002a0: 32ac fe3c 6902 d5bd b086 51bd 0c67 c13d
000002b0: c13e 753d 2414 c5bc 7d15 d13d 9af2 9a3d
000002c0: e851 31bd aa55 fb3d ba5f a03c 409e dabd
000002d0: 10c5 60bc ff65 0cbe b51c bfbd 0df0 1cbe
000002e0: 31b6 61bd 86ca d3bc b3f5 f5bd ffd5 2abd
000002f0: f8c5 6d3d 7d66 303d 1e8c 7bbd 3c2f a5bc
00000300: b8fe 98bd 7d6b b33c 610b 9e3d d37c 95bd
00000310: 221a b0bd ab25 4d3c 2cda abbd 8210 ccbd
00000320: f937 f83d 2164 6bbc 91c5 ccbd 1b2a cabd
00000330: 02be 173d bddc d53c 778a 903d f208 d0bc
00000340: b76e 1a3d 854f 533d 32a6 f7bd ff83 d93d
00000350: 63cf 00bd 6692 36bd 1683 2fbc f277 b53d
00000360: 6276 05be b41d f93c a867 8bbd 534a eabc
00000370: dd07 083d 805c 3f3c e1fa e43d 92d8 c7bd
00000380: 74f5 fd3c 59b4 8a3d ce60 de3d 7151 643d
00000390: 04b8 75bd 8de2 9c3d 127f a6bc 3608 093c
000003a0: 5707 d3bd 780e a1bd 5ed9 a63d acda 4c3d
000003b0: f2c7 b43d ad11 253d 393f a3bd 0fb6 e2bc
000003c0: a8a7 cbbd d656 a53d 2dd0 a8bc 3cb5 d33d
000003d0: 4638 d1ba ba24 8fbd 9e5d 423d 1c8c d2bc
000003e0: 5288 97bd 8e75 5d3d e2bc 103d 058f fd3d
000003f0: 5f23 4b3d 3be9 2c3e a693 2e3d c25f 183e
0.16056788 0.06335472 -0.009351097 0.022890871 -0.13013142 -0.027064603 -0.124366395 0.10095799
-0.043337617 0.031332497 -0.016716268 0.0899815 -0.010173329 -0.046783768 -0.037697013 -0.024305234
-0.056794625 -0.04252457 0.03194505 -0.04496852 0.06751886 0.00979811 -0.03301558 -0.03820523
0.0014182474 0.12793013 0.03430046 0.09919871 0.0251447 -0.021322109 0.0427531 0.045802798
0.05291324 0.031472366 -0.010763171 -0.043384735 0.0173255 -0.14311214 0.047638264 -0.14664999
0.16625853 -0.046667933 0.22208074 -0.05420684 0.021735005 0.17766286 -0.014055419 -0.0873747
-0.024658637 0.066135675 -0.061024953 -0.117297076 -0.15218183 -0.0032812252 -0.16977032 0.05571025
0.10151901 -0.046911485 0.16271807 0.036099438 0.03656177 0.05380499 0.03987674 0.031173214
0.005907683 -0.053159866 0.017058568 -0.07111693 0.043258287 -0.118615106 -0.1323933 0.016484495
-0.104182824 0.08911057 0.04746388 0.12793095 0.071376644 -0.057497725 0.036480784 -0.09276107
-0.12519081 -0.06631615 0.04309332 -0.13956852 0.033497382 -0.12861575 0.0040966063 -0.07350265
0.03254333 -0.0878355 -0.050566066 0.029218012 -0.021473793 0.091086194 -0.05059564 0.02005529
-0.04361381 0.0051283035 -0.10365543 0.08025034 -0.15002638 0.10091144 -0.0871352 -0.06787499
-0.042398173 0.17005101 -0.072734624 -0.032847542 0.07660829 0.0022042817 -0.044402666 -0.032631844
0.012338388 -0.025594361 -0.014370381 0.1127216 -0.046490267 -0.102490135 0.05606703 -0.09399546
-0.034983825 0.009947095 0.11937099 0.041179597 -0.0045208014 -0.012895082 -0.030836193 -0.05199292
0.1018638 -0.1453552 -0.024611264 -0.03542125 0.057437852 0.101099476 -0.14568564 0.016297668
0.010071966 -0.011786301 -0.2016732 -0.075479366 0.04382265 0.06086892 0.08270546 0.08817792
-0.09204913 0.119862154 -0.13771926 -0.10739658 -0.032780208 -0.14112301 0.013802662 0.07342716
-0.09882702 -0.107034035 0.013622428 0.07042508 -0.021428287 -0.07574549 0.12220724 0.013385423
-0.018310787 -0.08868541 -0.0066842386 0.110839605 -0.0537905 -0.033623464 -0.10816462 0.0105019
0.031087968 -0.1040085 -0.05115384 0.09443483 0.0598743 -0.024057455 0.10209177 0.07565804
-0.043291003 0.122721985 0.019576896 -0.10674715 -0.013718858 -0.13710783 -0.09331647 -0.15325947
-0.055105392 -0.025853407 -0.12009754 -0.04170799 0.058050126 0.04306649 -0.061412923 -0.020164125
-0.07470459 0.02190184 0.07717014 -0.07299199 -0.085987344 0.012521188 -0.08391222 -0.09964086
0.12120051 -0.014367134 -0.0999862 -0.09871312 0.03704644 0.026106233 0.0705766 -0.02539489
0.037703242 0.051589508 -0.12092246 0.106208794 -0.03144778 -0.04457321 -0.010712406 0.088607684
-0.1303344 0.030409671 -0.0680688 -0.028599894 0.033210624 0.011679769 0.11180664 -0.097581044
0.03100083 0.0677268 0.10858308 0.05574173 -0.059989944 0.07660399 -0.020324264 0.008363774
-0.10304134 -0.07864088 0.08146928 0.05001323 0.08827199 0.04030006 -0.07971043 -0.027674703
-0.09944087 0.08073203 -0.020607078 0.10337302 -0.0015962205 -0.06989427 0.04745256 -0.025701575
-0.07399048 0.054067187 0.035336383 0.123807944 0.04959428 0.16885845 0.042621277 0.14880279

conv_2.conv.0.bias f4 [24]
00000000: 2a61 4d3d 28c3 593b b55b dfbd cdfb fdbd
00000010: eaae 8fbc 12d1 0b3e 259c 9ebc a020 cb3d
00000020: 8450 0cbe d6e2 ed3d f583 b63d 861d a03c
00000030: 861f 933d 8622 383d abb9 343b 0091 3d3d
00000040: 7f39 cb3d 6b08 873d 7004 f43d 1377 083e
00000050: 789a 70bc d208 ef3c 67db b13d 5a3e 9fbd
0.05014149 0.0033227894 -0.109061636 -0.12401543 -0.01753946 0.13653973 -0.019361565 0.09918332
-0.1370259 0.11615531 0.089118876 0.019545328 0.07183747 0.0449548 0.0027576487 0.04628086
0.09923076 0.065934025 0.11914909 0.13326673 -0.014685266 0.02917901 0.08684426 -0.077755645

conv_2.conv.1.weight f4 [24]
00000000: a3c9 a63f 3ab4 6f3f 8308 993f cef4 833f
00000010: 2ce2 7d3f 40c1 6b3f 0fdb 973f d699 9c3f
00000020: 15ea 713f 96ff 8f3f 1229 973f 5c4a 6f3f
00000030: 694b 7e3f f999 803f b85e 703f b63d 973f
00000040: 0aa2 943f 7559 a23f c0f7 703f dfec 723f
00000050: 51be 703f 6cd9 9e3f 31df 973f bb24 993f
1.3030285 0.9363438 1.1955723 1.0309083 0.99173236 0.9209175 1.1863726 1.2234447
0.94497806 1.1249874 1.1809409 0.9347284 0.99333817 1.0046989 0.9389453 1.1815708
1.161195 1.268355 0.94128036 0.94892687 0.940404 1.2410102 1.1864988 1.1964334

conv_2.conv.1.bias f4 [24]
00000000: d482 863e 2d51 8abd f636 363e e4e1 243c
00000010: befa 68bc be29 bfbd 21e4 2c3e 555c 4e3e
00000020: 48f4 76bd f4c0 d53d 402e 2e3e 2bbb a9bd
00000030: 1e0d 2cbc 1bbe 2fbb 5446 93bd db22 243e
00000040: a1db fe3d f918 743e 95cb b0bd 5479 63bd
00000050: a028 acbd 2e00 4f3e 8075 213e 2883 2e3e
0.2627169 -0.06753764 0.17794403 0.010063622 -0.014219938 -0.093341336 0.168839 0.2015241
-0.06029156 0.104371935 0.1700983 -0.082876526 -0.010501174 -0.0026816193 -0.071911484 0.16028921
0.12444235 0.23837651 -0.0863258 -0.05553563 -0.08406186 0.20214912 0.15767479 0.1704222

conv_2.conv.1.running_mean f4 [24]
00000000: da24 103f fba3 b4be 76d5 0abf eefe 6bbf
00000010: dd6e 7c3e fa3c d33e 22d8 09bf b1e0 153f
00000020: d71f febe dd6d 953e b274 103f ce77 193d
00000030: 5838 8dbf f37e aebe e05f 09bf a092 f0be
00000040: cae2 86bf d50b 06bf 6c5b 533e 1e10 cf3e
00000050: b9b7 e53f 5426 133f 23c8 97be abd4 ef3e
0.5630623 -0.35281357 -0.54231966 -0.92185867 0.24651666 0.4125746 -0.5384542 0.58545977
-0.49633667 0.29185382 0.5642806 0.03746777 -1.103282 -0.3408123 -0.5366192 -0.46986866
-1.053796 -0.52361804 0.20640343 0.40441984 1.7946693 0.5748036 -0.2964488 0.4684194

conv_2.conv.1.running_var f4 [24]
00000000: 0bb3 c63d 79b2 d03d bbda f23d fd79 223e
00000010: 2fb4 9d3d 1773 683e 5b4e eb3d a7f1 2c3e
00000020: f290 453e 98ec ea3d 2b3a 4b3e 56e9 373e
00000030: 8a86 523e 0326 c03d 8cb3 633d 4be7 f83d
00000040: c9e9 9d3e 101d 453e de26 bc3d 1537 873e
00000050: 3c85 103e dda3 843d 63b3 d03d ed2f 3e3e
0.097021185 0.10190291 0.11858126 0.15866847 0.07700383 0.22700153 0.114895545 0.16889058
0.19293573 0.11470908 0.19846408 0.17960104 0.20559135 0.0938225 0.05559115 0.12153491
0.30842426 0.19249368 0.09187101 0.26409212 0.14113325 0.06476567 0.10190465 0.1857297

flaten.conv.0.weight f4 [1, 24, 1, 1]
00000000: 151b 25be 57d1 e43c c59c 9abe ee5d 84bd
00000010: 4633 1ebd 2470 b43d adc7 91be b1f8 6bbe
00000020: 1632 6e3c 23b0 c7bd 4277 93be 3e3b ad3d
00000030: f919 7dbd c2f6 71bd f90e 203d df89 97be
00000040: a746 e6bd 1285 2dbe 6bc9 bf3d ea94 4bbc
00000050: 16ce 0f3e 2348 5bbe 55a4 a5be 9e8c 7dbe
-0.16123612 0.027931852 -0.3019773 -0.06463228 -0.038623117 0.088104516 -0.28472653 -0.23044087
0.014538309 -0.09750392 -0.28801924 0.08458565 -0.061792348 -0.059073217 0.03907678 -0.29597375
-0.112439446 -0.16945294 0.09364589 -0.012425641 0.1404346 -0.21414237 -0.32351938 -0.24760672
