model/CP3_val_0.016687.pth (torch, 11546 bytes, 13 tensors)

conv_1.conv.0.weight f4 [12, 2, 2, 2]
000000 d4 64 08 3e 5c 56 39 be ac 68 e6 be 41 0d 35 be
       0.13319713 -0.1809935 -0.45001733 -0.17680837
000010 14 fc c0 bd 54 b6 9f 3d 14 49 ad bc f8 5f e7 3d
       -0.0942308 0.07798448 -0.02115301 0.112976015
000020 da 66 a2 3e ba 22 3c 3d 02 6a 2c 3e 02 2a 51 3e
       0.31719095 0.045931555 0.16837314 0.20426181
000030 44 88 ae be e0 1e b2 be 21 60 9e be c4 fd cd bd
       -0.34088337 -0.3478918 -0.30932716 -0.100581676
000040 1c 43 d3 be 93 4c 8e be 9c 6b 99 bb 7f bf b1 bc
       -0.41262138 -0.27792796 -0.0046820175 -0.021697758
000050 99 49 3b be 15 dd 82 3c 81 04 05 3d 4a 32 2e 3e
       -0.18289794 0.01597456 0.032475 0.17011371
000060 0e 2d 23 be 65 ba 23 3e 91 d3 a2 bd 81 53 af 3e
       -0.15935156 0.15989073 -0.07950509 0.34243396
000070 12 39 b4 3d bc 5c bc bd 8e eb c3 3e 7e ee b0 3d
       0.08799948 -0.09197375 0.3826565 0.08639239
000080 f6 2f 0d 3e 52 f4 68 3e b6 bf 9a 3e 89 72 8f bd
       0.13787827 0.22749451 0.3022439 -0.07004268
000090 8b 3a 98 3e b7 01 62 be 41 94 c4 bd 4e 97 a9 3d
       0.29732165 -0.22070967 -0.0959859 0.08280812
0000a0 db ad 77 bc 88 dc af be 43 a2 32 3e 9b 17 af 3d
       -0.015117134 -0.3434794 0.1744471 0.08549424
0000b0 bc a0 c4 3d 25 3a b1 be d3 b0 78 be 02 a9 16 3e
       0.0960097 -0.34614673 -0.24286203 0.14712909
0000c0 da ba 97 3d e9 c7 56 be e8 8a df bd f7 f0 f4 bd
       0.07408686 -0.20974697 -0.10915166 -0.11960023
0000d0 2e 36 44 3d cc db c7 be 09 42 48 3d 0f 07 0c 3e
       0.047903232 -0.3903488 0.0488911 0.13674568
0000e0 0a 4c 5b be c5 61 24 3e 2e eb 8e 3e 11 8f a0 3e
       -0.21415725 0.16052921 0.27913803 0.3135915
0000f0 3e 52 bc bd 54 6f d6 3c 4e e7 a8 3e 5b c7 81 be
       -0.09195374 0.026176132 0.3298897 -0.2534741
000100 de fa 4b 3e db bb 69 be 7e 5f 20 3e c2 19 67 3e
       0.19919917 -0.22825567 0.15661427 0.2256842
000110 02 f3 74 be 3c 91 a1 be 14 79 a4 be 32 27 9e bd
       -0.23920825 -0.31556118 -0.32123625 -0.0772232
000120 47 63 c2 3d fb ff 80 3e 38 46 0d be 14 04 6a be
       0.09491592 0.25195298 -0.13796318 -0.22853118
000130 5e 1c 38 be fe e3 87 be e5 cc c5 be 90 c9 82 be
       -0.17979571 -0.26541132 -0.38632885 -0.25544405
000140 e3 81 76 3d e5 79 e6 3c c7 c5 93 be 92 3a f6 3d
       0.060182463 0.028134296 -0.2886183 0.1202289
000150 52 33 4c be 70 72 09 3e d8 cb fb be ee 79 37 be
       -0.19941452 0.1342256 -0.49178958 -0.17917606
000160 b9 b7 d8 bd f5 a4 a0 3c bd cb 9b 3e 66 bb 78 be
       -0.10581917 0.019609908 0.30428877 -0.24290237
000170 bf 4e 39 be 0a 1f cc be e2 4e f5 bd e8 ef c8 ba
       -0.18096446 -0.3986743 -0.11977936 -0.0015330287

conv_1.conv.0.bias f4 [12]
000000 d1 3b 82 be 0b 03 4d be ab ab e5 ba 8b 40 6f bc
       -0.2543626 -0.20020692 -0.0017522475 -0.014602791
000010 62 4a 45 be da e3 01 be b1 4a 9e bc 0a 58 a2 bd
       -0.19266656 -0.12684575 -0.019322725 -0.07926948
000020 53 22 8a 3e 1d c0 a3 be da 6f 98 be 76 78 b0 3e
       0.26979312 -0.31982508 -0.29772836 0.34466904

conv_1.conv.1.weight f4 [12]
000000 fa 22 7f 3f 83 1a 7a 3f a1 f5 81 3f 7c 8a 5f 3f
       0.99662745 0.97696704 1.0153085 0.87320685
000010 e3 84 63 3f 71 1a 64 3f ca 16 85 3f b8 a0 59 3f
       0.88874644 0.89102846 1.039758 0.8501086
000020 9e 51 88 3f 11 1f 8a 3f 3b 4b 90 3f ab c3 82 3f
       1.0649908 1.0790731 1.1272959 1.0215963

conv_1.conv.1.bias f4 [12]
000000 cb 87 c6 bd d8 f9 89 be c9 d6 86 bd 28 0c 0e 3c
       -0.09693869 -0.26948428 -0.06583936 0.00866989
000010 1b e9 2d 3e ed 73 2e bd 0a 1a ff bb 0c 6d d5 3d
       0.16983454 -0.042591024 -0.0077850865 0.1042119
000020 b7 54 28 be 1b ec db bd 45 67 51 bd 0d 0b 0a be
       -0.16438566 -0.10738393 -0.051123876 -0.13480778

conv_1.conv.1.running_mean f4 [12]
000000 5d 95 2b c2 32 db 0a c2 78 75 43 c2 61 77 60 42
       -42.895863 -34.714058 -48.864716 56.11658
000010 e4 cc 3f 42 d6 3b 0b c2 d7 df 1a c2 6d 9b 1e 42
       47.95009 -34.808434 -38.718594 39.651783
000020 2e ea 48 c2 2f e7 b0 c2 75 a9 81 c2 7d 2a 65 c2
       -50.22869 -88.45153 -64.83097 -57.291492

conv_1.conv.1.running_var f4 [12]
000000 ce 55 73 44 e5 1d f0 44 32 d9 f2 44 af cb ec 44
       973.3407 1920.9342 1942.7874 1894.3651
000010 aa 33 a6 44 49 a0 bf 44 d5 2c a8 44 a5 e7 b8 44
       1329.6145 1533.0089 1345.401 1479.2389
000020 8f d8 04 45 dc cb 78 45 00 cc 60 45 fb ae 05 45
       2125.535 3980.7412 3596.75 2138.9363

conv_2.conv.0.weight f4 [24, 12, 2, 2]
000000 1c d4 15 3e d0 9c 7d 3d a4 44 d9 bb 5d 45 e7 3c
       0.14631695 0.061917126 -0.006630497 0.028231317
000010 8f ce 0c be 7f b1 fa bc 2a 9d 02 be e7 da c6 3d
       -0.13750671 -0.030602215 -0.12755266 0.09709721
000020 9c 9a 57 bd 3d 52 fd 3c cf 26 9b bc 10 38 bf 3d
       -0.05263768 0.030923003 -0.018939404 0.09336865
000030 04 d7 52 bc a4 08 22 bd ad e8 0d bd ed a3 98 bc
       -0.0128686465 -0.03955902 -0.034645725 -0.018632853
000040 f0 30 51 bd 3d e9 ef bc ed 0b 0e 3d b9 f7 39 bd
       -0.05107206 -0.029286021 0.034679342 -0.045402262
000050 2c 1e 7f 3d 78 ae 32 3c d9 33 ed bc 86 53 13 bd
       0.062284634 0.010905854 -0.028955387 -0.035968326
000060 27 d7 bb ba 38 46 03 3e 32 83 2b 3d aa 5f dd 3d
       -0.0014331088 0.12819755 0.041873164 0.10809262
000070 14 5a a7 3c 15 70 5a bc b7 75 38 3d aa 80 1e 3d
       0.020428695 -0.0133323865 0.045034137 0.038696922
000080 4c 2d 56 3d 10 34 18 3d e5 23 54 bc b8 aa 4a bd
       0.052289292 0.037159026 -0.012948011 -0.049479216
000090 d7 00 81 3c 10 db 17 be d7 21 36 3d 78 34 19 be
       0.01574747 -0.1482966 0.044465866 -0.14961421
0000a0 af 95 2a 3e 6e cc 29 bd 8e 99 5e 3e b8 41 3e bd
       0.16658662 -0.041454725 0.21738264 -0.046449393
0000b0 c9 99 f1 3c ed a1 2f 3e 22 f6 7f bc 23 56 af bd
       0.029492276 0.17151614 -0.0156226475 -0.08561351
0000c0 5d a0 c0 bc d6 77 8d 3d d5 9d 71 bd 2c 58 ed bd
       -0.023513967 0.069076225 -0.05898841 -0.11589083
0000d0 79 7b 1b be 0f a2 00 bc 31 74 2f be 37 91 5a 3d
       -0.1518382 -0.007851138 -0.17134167 0.053361144
0000e0 0b cf cc 3d 64 54 39 bd 18 54 26 3e 7c d4 1a 3d
       0.10000428 -0.045246497 0.16243017 0.037800297
0000f0 67 f1 10 3d 64 d6 60 3d 22 70 1e 3d ab a1 03 3d
       0.03538647 0.05489196 0.038681157 0.0321366
000100 ec 09 2d 3b 2e 90 62 bd dd 0f 58 3c 3f a0 95 bd
       0.002640362 -0.05531328 0.013187376 -0.07305955
000110 e5 6c 34 3d b4 5e ef bd 67 60 07 be 92 ed 7f 3c
       0.044049162 -0.11687985 -0.13220368 0.015620606
000120 09 c4 d1 bd 5d 32 bd 3d 2e b3 48 3d 01 c1 01 3e
       -0.10242469 0.09238122 0.048999004 0.12671281
000130 5c 7c 8b 3d 16 54 76 bd c3 c4 09 3d bc 52 bf bd
       0.06810829 -0.060138784 0.033634912 -0.09341952
000140 a3 c0 fe bd ec cb 8b bd 74 bb 2b 3d c1 f8 0f be
       -0.12439086 -0.068260044 0.041926816 -0.14059736
000150 a1 08 0a 3d 19 eb 05 be 46 a9 7a 3b 25 14 9c bd
       0.033699635 -0.13077964 0.0038247867 -0.0762103
000160 00 66 ff 3c 25 ee b7 bd 3b 6b 4f bd fe 87 e3 3c
       0.031176567 -0.08980969 -0.050639372 0.027774807
000170 9e 27 ad bc 7e 67 b8 3d 0a 94 4f bd 59 75 97 3c
       -0.021137055 0.090041146 -0.05067829 0.018488573
000180 d8 fd 42 bd dd d2 b9 3b 94 1a da bd 59 ed 96 3d
       -0.047605366 0.005670889 -0.106496006 0.07369489
000190 e1 7e 19 be 3c 19 be 3d 96 ae ac bd ab a1 92 bd
       -0.14989807 0.09282157 -0.08431737 -0.07159742
0001a0 72 3a fb bc 74 b1 34 3e a6 9b 9a bd 64 1b ec bc
       -0.030667517 0.17645818 -0.07549219 -0.028821655
0001b0 e4 48 95 3d 84 0b d4 3a 4c 1d 31 bd 58 b6 06 bd
       0.072892934 0.0016177748 -0.04324083 -0.03288874
0001c0 c1 97 4e 3c 1d 77 7f bc a2 fa 95 bc ad 70 e5 3d
       0.012609423 -0.015592364 -0.018307988 0.11203132
0001d0 c0 69 3a bd f1 91 cc bd 48 1e 66 3d da 46 b9 bd
       -0.045511007 -0.099887736 0.056181222 -0.09046717
0001e0 4d 51 03 bd fd ab 6e ba 34 af 07 3e 6f e6 58 3d
       -0.032059956 -0.0009104608 0.13250428 0.052954134
0001f0 42 c4 e7 bb d8 48 85 bc 9b 37 06 bd 22 28 5f bd
       -0.0070729563 -0.016270086 -0.032767873 -0.054481633
000200 65 1b da 3d 18 df 14 be ef 4c cf bc 96 d1 14 bd
       0.10649756 -0.14538229 -0.02530524 -0.03633269
000210 15 f4 3c 3d 4a 4f c2 3d 54 78 14 be 43 41 33 3c
       0.046131212 0.094877794 -0.14499027 0.010940853
000220 cc 1a ef 3b 2f fd d8 bc 79 89 52 be a1 3a a5 bd
       0.0072968956 -0.026487915 -0.20560254 -0.08067823
000230 04 63 3b 3d b8 8b 73 3d 61 d8 a9 3d c2 4c b6 3d
       0.045748726 0.059459418 0.08293224 0.08901359
000240 6c 57 c6 bd c5 f8 eb 3d 16 57 14 be 8f 5d e0 bd
       -0.09684643 0.115220584 -0.14486346 -0.10955345
000250 cb df 25 bd 9d 58 18 be 7c 83 34 3c c0 97 80 3d
       -0.04049663 -0.14877553 0.011017676 0.06278944
000260 eb a4 95 bd 48 db be bd 4f 72 ce 3b 6d 59 98 3d
       -0.07306846 -0.09319168 0.0063002477 0.074389316
000270 3f 34 a3 bc ce d7 94 bd ff d6 ed 3d 5d fc 26 3c
       -0.019922374 -0.07267724 0.11613273 0.010192004
000280 74 05 aa bc 39 10 9c bd 5d 87 80 bc 2e 49 ce 3d
       -0.020754553 -0.07620282 -0.015689546 0.10072552
000290 60 66 44 bd a3 90 0a bd 82 a4 d3 bd fb 33 eb 3b
       -0.047949195 -0.033829343 -0.10334112 0.0071778274
0002a0 87 53 38 3d d6 7b e2 bd 52 ce f5 bc 76 19 dd 3d
       0.045001533 -0.11058776 -0.030005608 0.10795872
0002b0 39 7d 71 3d 5f 6a 7a bc 8f 4a b3 3d b5 6a 6e 3d
       0.058957312 -0.01528415 0.08754455 0.058207233
0002c0 89 00 23 bd 5f 2e f7 3d 97 bf 77 3c 54 ac e6 bd
       -0.039795432 0.120693915 0.015121362 -0.11263338
0002d0 c0 ec cc bc 72 1e 11 be 75 bb d8 bd f2 63 22 be
       -0.025015235 -0.1417177 -0.105826296 -0.15858439
0002e0 c4 6b 70 bd 3c 73 24 bd 25 6d 0d be 97 b9 60 bd
       -0.058696523 -0.04014896 -0.13811167 -0.054864492
0002f0 d0 f3 77 3d a4 5a 35 3d 28 a8 6f bd 52 b9 a1 bc
       0.060535252 0.044275895 -0.058509976 -0.019741688
000300 39 85 9e bd 51 e6 b2 3c 43 fd a8 3d 1f d8 85 bd
       -0.07740254 0.021838339 0.08251431 -0.065353625
000310 60 8d ab bd 67 ad cc 3b eb 9b a7 bd 21 f8 e1 bd
       -0.083765745 0.006246257 -0.08184036 -0.11033655
000320 17 a5 ef 3d 4b 5a 8b bc 78 33 d6 bd 57 c3 ba bd
       0.1170141 -0.017010828 -0.10459036 -0.09119289
000330 51 33 ed 3c 4d 75 c9 3c 52 49 79 3d d1 fd 11 bd
       0.028955134 0.024592066 0.06086094 -0.03564245
000340 ed 51 02 3d 0f 8c 2c 3d 2f 11 0d be 97 d9 cf 3d
       0.03181641 0.042125758 -0.13776086 0.10148924
000350 17 51 00 bd 0c 59 50 bd ad c2 34 bc 41 90 b2 3d
       -0.031327333 -0.05086617 -0.011032742 0.087189205
000360 c1 19 00 be 78 b5 05 3d 58 8f 54 bd 0d df 6d bc
       -0.12509824 0.032643765 -0.051894516 -0.0145185115
000370 9b 12 88 3c ba 4c 33 3b 86 85 d3 3d eb c5 f4 bd
       0.016610434 0.0027358965 0.10328202 -0.11951812
000380 d4 f2 0d 3d e5 da 85 3d 1f 0f dd 3d ec ce 41 3d
       0.034655407 0.065358914 0.107939 0.047316477
000390 81 9c 7e bd b3 46 99 3d 92 9d 3f bc 22 a1 f0 3b
       -0.062160973 0.07484188 -0.0116952825 0.0073434273
0003a0 b6 54 cd bd c8 a0 b6 bd 24 32 b4 3d 25 f5 7d 3d
       -0.10025923 -0.08917385 0.08798626 0.062001366
0003b0 ed 25 b7 3d 6a 9e 1d 3d 5d 82 9a bd 5b 28 06 bd
       0.08942781 0.038481154 -0.07544396 -0.03275333
0003c0 6a e6 bd bd a7 ee b1 3d 31 40 75 bc 45 5d dd 3d
       -0.092724636 0.086880974 -0.014968918 0.108088054
0003d0 c5 c9 20 bc a9 97 a8 bd 83 11 0c 3d 70 f6 0c bd
       -0.009813731 -0.08232052 0.034196388 -0.03441471
0003e0 23 86 98 bd 54 d2 63 3d ad 73 2e 3d 51 93 04 3e
       -0.074474595 0.055620506 0.042590786 0.12946822
0003f0 c4 6c 45 3d fb b0 29 3e 2f ad 39 3d 52 4c 11 3e
       0.04819943 0.16571419 0.045331176 0.1418927

conv_2.conv.0.bias f4 [24]
000000 81 69 4a 3d 67 83 59 3b e2 01 df bd 26 f6 fd bd
       0.049417023 0.0033189894 -0.10889031 -0.12400465
000010 30 85 8f bc 00 d7 0b 3e bf ec 9c bc 34 23 cb 3d
       -0.017519563 0.13656235 -0.019155858 0.09918824
000020 a2 48 0c be 06 c8 ed 3d 0f a1 b5 3d 93 e1 a0 3c
       -0.13699582 0.11610417 0.0886861 0.019638812
000030 2a 21 93 3d e3 f9 37 3d 72 c4 41 3b 10 ae 3c 3d
       0.0718406 0.044916045 0.0029566553 0.046064436
000040 65 49 cb 3d b3 22 87 3d 10 1e f4 3d d3 79 08 3e
       0.09926108 0.06598415 0.119197965 0.13327722
000050 00 4e 7e bc 94 d0 ec 3c 38 9a b1 3d 5c 20 a0 bd
       -0.015521526 0.028908052 0.08671993 -0.07818672

conv_2.conv.1.weight f4 [24]
000000 8d d9 ae 3f 27 5b 6f 3f e4 cd 9d 3f 56 d7 89 3f
       1.3660141 0.9349846 1.2328458 1.076884
000010 82 a4 82 3f 94 af 6a 3f 08 75 9c 3f e5 b4 a2 3f
       1.0206454 0.9167416 1.2223215 1.2711455
000020 e6 36 73 3f 3c 71 98 3f 91 c0 9b 3f b0 d5 72 3f
       0.95005643 1.1909556 1.2168142 0.9485731
000030 f9 81 84 3f cb 9e 85 3f 97 d5 73 3f 90 d4 9b 3f
       1.0352165 1.0439085 0.9524779 1.2174244
000040 cc 8b 9d 3f 82 1e a9 3f 85 cd 75 3f 26 f5 73 3f
       1.2308288 1.3212435 0.9601672 0.9529594
000050 3f 83 76 3f b0 5d a5 3f e1 85 9c 3f 66 f1 9d 3f
       0.96294016 1.2919216 1.2228357 1.2339294

conv_2.conv.1.bias f4 [24]
000000 d7 ad 9a 3e 42 98 8f bd 73 af 53 3e b5 51 10 3d
       0.30210754 -0.07011463 0.20672397 0.035234172
000010 44 a0 13 3c b1 5d cd bd 8b c7 47 3e 6f d3 70 3e
       0.009010378 -0.10027636 0.19509713 0.23518156
000020 c9 2a 7c bd 6f 84 14 3e d8 6c 49 3e 7d ea b1 bd
       -0.06156424 0.14503644 0.19670427 -0.08687303
000030 ee 5b 8e 3c 5f fa e8 3c d7 11 97 bd a0 01 3e 3e
       0.01737782 0.028439699 -0.073764496 0.18555307
000040 7d 09 28 3e e9 ab 8b 3e 70 b7 b4 bd 4f 00 49 bd
       0.1640987 0.27279595 -0.088240504 -0.04907256
000050 ba ec b1 bd a6 f9 6e 3e a1 73 3a 3e 17 9c 4a 3e
       -0.0868773 0.23337421 0.18208171 0.19786106

conv_2.conv.1.running_mean f4 [24]
000000 da 66 18 3f d7 17 af be f8 69 0b bf 67 b3 75 bf
       0.5953194 -0.34197876 -0.5445857 -0.9597687
000010 6e 29 19 3e c0 9a 9e 3e ed f0 05 bf 23 2a 27 3f
       0.1495721 0.3097744 -0.5232075 0.6529867
000020 bf fc b6 be c9 75 a9 3e c1 f5 1f 3f 93 41 7a 3e
       -0.35739705 0.33097675 0.62484366 0.24439077
000030 32 36 76 bf 84 c3 71 be 6c 09 c0 be ac 2a f4 be
       -0.96176445 -0.2360974 -0.37507188 -0.47688806
000040 f0 fa 89 bf ab ec fe be f9 59 16 3e 0b f2 11 3f
       -1.0779705 -0.49789938 0.1468276 0.57009953
000050 0c 6a e2 3f 34 7f 13 3f ee 02 94 be a4 fd 0d 3f
       1.7688613 0.5761597 -0.28908485 0.5546515

conv_2.conv.1.running_var f4 [24]
000000 3f a1 b5 3d c5 df b8 3d fe 0b fc 3d d4 23 34 3e
       0.08868646 0.09027056 0.12306975 0.17591792
000010 75 4c 5b 3d 8e df 26 3e f7 c1 e2 3d db e7 2b 3e
       0.053539712 0.16296217 0.11072152 0.16787665
000020 50 ac 07 3e c9 04 f6 3d ce d2 39 3e fa ee 04 3e
       0.13249326 0.120126314 0.18146822 0.12981787
000030 f2 a0 45 3e 0e 6b ce 3d 25 5c 4d 3d 9d 19 fd 3d
       0.19299677 0.10079013 0.050136704 0.12358401
000040 8d f4 a2 3e 21 f0 39 3e 64 15 9a 3d 7d ea 6c 3e
       0.31827202 0.18158008 0.07523611 0.23136325
000050 9b d6 e9 3d 28 10 67 3d 15 3a c2 3d 2e 81 40 3e
       0.11417886 0.056411892 0.094837345 0.18799278

flaten.conv.0.weight f4 [1, 24, 1, 1]
000000 51 5d 46 be 8d 74 c2 3c 87 10 a9 be 98 63 b5 bd
       -0.19371535 0.023737216 -0.33020422 -0.088568866
000010 b5 00 71 bd 60 51 a7 3d 15 69 9f be 31 f6 85 be
       -0.058838565 0.08169818 -0.3113486 -0.26164392
000020 f3 91 e2 3c 71 71 02 be 32 46 a1 be 7b cb ce 3d
       0.027657485 -0.12738587 -0.31498867 0.100974046
000030 32 61 bb bd 9a 8c ac bd c0 81 6b 3d 3e 5d a5 be
       -0.09149398 -0.08425255 0.057496786 -0.322977
000040 38 48 14 be cb 8c 49 be 3e cc e9 3d 56 45 d1 bc
       -0.14480674 -0.19682615 0.11415909 -0.025545757
000050 34 a8 27 3e ed 72 7b be a4 05 b4 be 1d 0e 8c be
       0.16372758 -0.2455556 -0.35160553 -0.27354518
