model/CP4_val_0.011972.pth (torch, 11546 bytes, 13 tensors)

conv_1.conv.0.weight f4 [12, 2, 2, 2]
0.12733859 -0.17935988 -0.45257133 -0.17103344 -0.089192845 0.0806316 -0.0150761325 0.12975638
0.314525 0.050657146 0.16146861 0.19888124 -0.34488702 -0.34995446 -0.31385064 -0.105207115
-0.41360092 -0.2700291 -0.0069420915 -0.018620687 -0.19184482 0.014803688 0.02938255 0.16969898
-0.15678823 0.16563879 -0.07269264 0.3466901 0.07521973 -0.10319663 0.3798826 0.08419758
0.14464654 0.22418885 0.30020958 -0.06428397 0.30283117 -0.21501282 -0.086958915 0.085626416
-0.024577325 -0.35880658 0.16670547 0.078311056 0.0936465 -0.34980235 -0.24346915 0.1390873
0.07837728 -0.205946 -0.113924846 -0.12526372 0.038891435 -0.39188826 0.04594438 0.13257055
-0.21176645 0.15032421 0.2883121 0.3096499 -0.0897049 0.016421514 0.3313474 -0.25574514
0.19687906 -0.22555532 0.14427148 0.22706947 -0.24345045 -0.31967482 -0.33575267 -0.08620695
0.09550781 0.24978523 -0.13526882 -0.21990104 -0.1883587 -0.26991484 -0.39637998 -0.26797625
0.062151216 0.031246109 -0.28020093 0.12742625 -0.20831569 0.12312231 -0.50609964 -0.17497762
-0.10559926 0.01936802 0.29718584 -0.22939184 -0.19602306 -0.41288054 -0.11900233 -0.01749534
00000000: 0c65 023e 1eaa 37be 6eb7 e7be 6423 2fbe
00000010: bdaa b6bd 2e22 a53d e201 77bc dbde 043e
00000020: 6c09 a13e de7d 4f3d 0758 253e 86a7 4b3e
00000030: 0895 b0be 3b2d b3be 08b1 a0be d476 d7bd
00000040: 80c3 d3be 4141 8abe 7c7a e3bb 698a 98bc
00000050: f872 44be 2b8b 723c acb3 f03c 92c5 2d3e
00000060: 188d 20be 379d 293e e1df 94bd 5d81 b13e
00000070: cd0c 9a3d c158 d3bd f97f c23e c86f ac3d
00000080: 391e 143e c391 653e 12b5 993e 50a7 83bd
00000090: b00c 9b3e 522c 5cbe 8417 b2bd e75c af3d
000000a0: 6356 c9bc 7fb5 b7be d7b4 2a3e 8c61 a03d
000000b0: bcc9 bf3d 4b19 b3be fa4f 79be e76c 0e3e
000000c0: 4484 a03d 82e3 52be 6e51 e9bd 2245 00be
000000d0: a04c 1f3d 94a5 c8be 2d30 3c3d 93c0 073e
000000e0: 4ed9 58be 97ee 193e a59d 933e 6f8a 9e3e
000000f0: 34b7 b7bd 6986 863c 5ea6 a93e 07f1 82be
00000100: aa9a 493e f9f7 66be e7bb 133e e684 683e
00000110: 134b 79be 6bac a3be c6e7 abbe 458d b0bd
00000120: 9999 c33d b3c7 7f3e e983 0abe bd2d 61be
00000130: 1ae1 40be 4732 8abe 51f2 cabe 2f34 89be
00000140: 4692 7e3d d7f7 ff3c 7f76 8fbe 077c 023e
00000150: b550 55be 8d27 fc3d bf8f 01bf 552d 33be
00000160: 6d44 d8bd afa9 9e3c be28 983e b2e5 6abe
00000170: 45ba 48be 1465 d3be 7eb7 f3bd 6352 8fbc

conv_1.conv.0.bias f4 [12]
-0.25436485 -0.20019212 -0.0017586875 -0.014601309 -0.19266838 -0.12684657 -0.019316511 -0.07926957
0.26979262 -0.3198125 -0.29774573 0.34466553
00000000: 1c3c 82be 2aff 4cbe c383 e6ba 543a 6fbc
00000010: dc4a 45be 11e4 01be a93d 9ebc 1658 a2bd
00000020: 4222 8a3e 77be a3be 2172 98be 0078 b03e

conv_1.conv.1.weight f4 [12]
1.0005884 0.97601545 1.0141523 0.85345274 0.8797449 0.88346386 1.053226 0.8373156
1.0667843 1.0685953 1.126412 1.0158502
00000000: 4813 803f 26dc 793f becf 813f e17b 5a3f
00000010: f636 613f b02a 623f 1cd0 863f 515a 563f
00000020: 638c 883f bbc7 883f 452e 903f 6107 823f

conv_1.conv.1.bias f4 [12]
-0.10568608 -0.30167696 -0.07049624 0.003770903 0.19154617 -0.04903694 -0.0034070315 0.12572445
-0.21083805 -0.15519774 -0.076276086 -0.183756
00000000: f271 d8bd 6775 9abe 5560 90bd 4121 773b
00000010: ae24 443e f5da 48bd 8148 5fbb e9bd 003e
00000020: eee5 57be 28ec 1ebe a336 9cbd 882a 3cbe

conv_1.conv.1.running_mean f4 [12]
-40.988182 -35.888798 -49.858932 55.081947 50.56714 -38.674053 -40.56785 39.092896
-52.98411 -90.04752 -65.369736 -60.055798
00000000: e6f3 23c2 218e 0fc2 8c6f 47c2 ea53 5c42
00000010: c044 4a42 3bb2 1ac2 7a45 22c2 205f 1c42
00000020: bbef 53c2 5518 b4c2 4ebd 82c2 2339 70c2

conv_1.conv.1.running_var f4 [12]
951.37195 2005.4436 2006.0518 1857.1909 1413.6396 1640.1593 1363.1616 1515.3696
2217.4583 4036.9016 3614.4885 2270.8225
00000000: ced7 6d44 32ae fa44 a8c1 fa44 1c26 e844
00000010: 78b4 b044 1905 cd44 2c65 aa44 d46b bd44
00000020: 5597 0a45 6d4e 7c45 d1e7 6145 29ed 0d45

conv_2.conv.0.weight f4 [24, 12, 2, 2]
0.13598116 0.05589248 -0.0069693453 0.028357783 -0.14229955 -0.031475004 -0.12910467 0.09654987
-0.05559695 0.03157017 -0.019942766 0.093697265 -0.015302733 -0.035863377 -0.033809442 -0.016345125
-0.0464099 -0.020221887 0.03605223 -0.04599173 0.059765775 0.012585809 -0.024623314 -0.030794298
-0.005178509 0.12506048 0.047529373 0.1136199 0.018760972 -0.0069260485 0.04559427 0.036041237
0.05377492 0.043093104 -0.013372606 -0.05212923 0.0152919935 -0.14999095 0.042330943 -0.14892322
0.16866697 -0.03639847 0.21442518 -0.039465148 0.035368934 0.16729966 -0.016295558 -0.082645655
-0.0211499 0.07382797 -0.056312438 -0.113036446 -0.15108071 -0.011111231 -0.17259815 0.051784072
0.09864566 -0.04441251 0.16301146 0.03967582 0.033966746 0.055781882 0.037021577 0.03201996
-0.000113218724 -0.057249997 0.009037083 -0.075500995 0.043918632 -0.11618405 -0.13219108 0.013515229
-0.10148729 0.09400902 0.05085785 0.12445844 0.064785495 -0.063149646 0.030432329 -0.0952799
-0.12418853 -0.06994127 0.040890545 -0.14167671 0.033849683 -0.13263868 0.0043480066 -0.0774267
0.031310987 -0.09166982 -0.05047307 0.027340492 -0.021476235 0.088250935 -0.05056868 0.0164972
-0.050193787 0.00519451 -0.106911816 0.06974734 -0.15143427 0.08510944 -0.08369342 -0.07676815
-0.02438574 0.1777912 -0.07512935 -0.025609525 0.07253471 0.003944136 -0.04145507 -0.031387933
0.0153458575 -0.0065962053 -0.024324296 0.11248116 -0.047465373 -0.099600755 0.055016685 -0.090211466
-0.031170739 -0.012592808 0.14609352 0.057516582 -0.009669949 -0.02044051 -0.037562046 -0.05594931
0.10850932 -0.14660563 -0.027217267 -0.039170064 0.03653983 0.0879921 -0.14037666 0.0041880477
0.0070930608 -0.039480735 -0.20330982 -0.082623385 0.044082973 0.05736703 0.08167658 0.08763567
-0.101298556 0.106287055 -0.14933993 -0.11093195 -0.04512633 -0.15369703 0.009777878 0.05502221
-0.05227735 -0.08792143 0.0027217765 0.07463415 -0.017798185 -0.06902485 0.11192301 0.009396715
-0.016830368 -0.06497417 -0.024045138 0.093898386 -0.04582369 -0.034759976 -0.09700065 0.004954791
0.050255846 -0.124805525 -0.008789789 0.115634605 0.06021181 -0.007970026 0.0770943 0.049484853
-0.03708972 0.1197877 0.012623218 -0.116028704 -0.032577865 -0.14644982 -0.11175389 -0.16117059
-0.0565484 -0.05174502 -0.14609616 -0.05887943 0.059713196 0.044911247 -0.055524938 -0.01972793
-0.07707014 0.011431466 0.08511104 -0.06275868 -0.081359945 0.0027779331 -0.08078523 -0.11962187
0.113975726 -0.020012343 -0.1025908 -0.09094781 0.023285894 0.02712858 0.055142652 -0.038737025
0.030266512 0.04677548 -0.14675349 0.105338454 -0.03008134 -0.053214844 -0.010202293 0.08091185
-0.12439306 0.023937386 -0.041874908 -0.014946926 0.0062228874 0.0031546801 0.0985965 -0.12442891
0.037691712 0.06404396 0.10659429 0.03884711 -0.061008226 0.06797353 -0.003427726 0.0038999412
-0.081401095 -0.09976951 0.10020625 0.07388286 0.08859168 0.03488687 -0.073022604 -0.041552138
-0.08549034 0.09612783 -0.008312916 0.115264334 -0.014059181 -0.09224233 0.023660954 -0.042412095
-0.073931016 0.058737867 0.050848186 0.13744134 0.04386525 0.15940557 0.045357775 0.13230851
00000000: a53e 0b3e 83ef 643d 1b5f e4bb 954e e83c
00000010: f9b6 11be efeb 00bd 0434 04be f0bb c53d
00000020: a1b9 63bd b94f 013d 035f a3bc 5ae4 bf3d
00000030: 50b8 7abc 7ae5 12bd c57b 0abd 36e6 85bc
00000040: 4f18 3ebd 5fa8 a5bc 81ab 133d d361 3cbd
00000050: f5cc 743d b634 4e3c d5b6 c9bc 5344 fcbc
00000060: 7bb0 a9bb db0f 003e 29ae 423d 8db1 e83d
00000070: 9cb0 993c e8f3 e2bb 0fc1 3a3d fa9f 133d
00000080: 1743 5c3d 6582 303d c618 5bbc 7685 55bd
00000090: 458b 7a3c 3a97 19be 3663 2d3d 547f 18be
000000a0: 09b7 2c3e 9016 15bd 4692 5b3e 35a6 21bd
000000b0: 04df 103d 9a50 2b3e 437e 85bc 2042 a9bd
000000c0: 8e42 adbc 1e33 973d dfa7 66bd a77f e7bd
000000d0: e7b4 1abe e10b 36bc 92bd 30be 891b 543d
000000e0: bc06 ca3d e4e9 35bd 7aec 263e 1d83 223d
000000f0: b720 0b3d 8b7b 643d f0a3 173d 5d27 033d
00000100: d76f edb8 f97e 6abd 4610 143c 44a0 9abd
00000110: 06e4 333d e7f1 edbd 195d 07be fb6e 5d3c
00000120: 91d8 cfbd cd87 c03d 5250 503d 11e4 fe3d
00000130: 42ae 843d 9a54 81bd 384d f93c 1c22 c3bd
00000140: 8e56 febd 5e3d 8fbd d87c 273d b313 11be
00000150: f7a5 0a3d 6fd2 07be b979 8e3b e491 9ebd
00000160: f33f 003d 63bd bbbd dabc 4ebd 2bf9 df3c
00000170: eeee afbc e8bc b43d 1b21 4fbd 2325 873c
00000180: 0098 4dbd b536 aa3b 95f4 dabd b2d7 8e3d
00000190: 9611 1bbe dc4d ae3d 7567 abbd 9f38 9dbd
000001a0: 9ac4 c7bc e50e 363e 6bdd 99bd 11cb d1bc
000001b0: 148d 943d d03d 813b cbcc 29bd a290 00bd
000001c0: 316d 7b3c fb24 d8bb bf43 c7bc 865c e63d
000001d0: 0d6b 42bd 7bfb cbbd 2d59 613d cac0 b8bd
000001e0: c759 ffbc 1152 4ebc 8a99 153e 8296 6b3d
000001f0: b56e 1ebc db72 a7bc a9da 19bd 1b2b 65bd
00000200: 223a de3d c91f 16be bff6 debc ca70 20bd
00000210: caaa 153d 3435 b43d e6be 0fbe e43b 893b
00000220: e86c e83b 8db6 21bd 7330 50be 7336 a9bd
00000230: 5990 343d b1f9 6a3d 0d46 a73d 557a b33d
00000240: 9e75 cfbd 07ad d93d 91ec 18be 4a30 e3bd
00000250: 63d6 38bd c162 1dbe 6533 203c f85e 613d
00000260: c620 56bd 2710 b4bd d55f 323b cad9 983d
00000270: 80cd 91bc e75c 8dbd e437 e53d aef4 193c
00000280: d7df 89bc 2d11 85bd 4ffa c4bc cc4d c03d
00000290: 9fb1 3bbd 7a60 0ebd 47a8 c6bd cd5b a23b
000002a0: 13d9 4d3d 0a9a ffbd 0c03 10bc d6d1 ec3d
000002b0: a9a0 763d b694 02bc 9ee3 9d3d a1b0 4a3d
000002c0: 64eb 17bd 4153 f53d 9dd1 4e3c 75a0 edbd
000002d0: 5e70 05bd f1f6 15be 39df e4bd e709 25be
000002e0: 4c9f 67bd 96f2 53bd 3b9a 15be 8f2b 71bd
000002f0: d395 743d dbf4 373d 1e6e 63bd 789c a1bc
00000300: f3d6 9dbd 0b4b 3b3c b24e ae3d 9f87 80bd
00000310: 0ba0 a6bd fc0d 363b ba72 a5bd 50fc f4bd
00000320: 1b6c e93d edf0 a3bc 201b d2bd d842 babd
00000330: 0fc2 be3c c13c de3c 43dd 613d b7aa 1ebd
00000340: 7af1 f73c a597 3f3d 8c46 16be b0bb d73d
00000350: 246d f6bc cff7 59bd 8527 27bc 1db5 a53d
00000360: cac1 febd 5618 c43c 0685 2bbd f4e3 74bc
00000370: 5de9 cb3b c0be 4e3b f6ec c93d 96d4 febd
00000380: a062 1a3d 7b29 833d 1b4e da3d 261e 1f3d
00000390: c3e3 79bd b535 8b3d b3a3 60bb 2896 7f3b
000003a0: 9eb5 a6bd f553 ccbd ef38 cd3d e64f 973d
000003b0: 8e6f b53d 89e5 0e3d e08c 95bd 9332 2abd
000003c0: 8f15 afbd abde c43d e632 08bc b50f ec3d
000003d0: 7b58 66bc 8ce9 bcbd 9ed4 c13c 4eb8 2dbd
000003e0: 2569 97bd 1e97 703d 3046 503d 6cbd 0c3e
000003f0: 0cac 333d 373b 233e 13c9 393d e27b 073e

conv_2.conv.0.bias f4 [24]
0.049578264 0.0033125235 -0.10910599 -0.124014005 -0.017440246 0.13656129 -0.018740147 0.09887627
-0.13703655 0.11603974 0.08913581 0.019717019 0.07185069 0.044808973 0.0028311997 0.04658028
0.09923477 0.06597621 0.119032696 0.13327748 -0.015887594 0.028839089 0.087344885 -0.078245975
00000000: 9412 4b3d ec16 593b f672 dfbd 0efb fdbd
00000010: d9de 8ebc b9d6 0b3e f084 99bc a47f ca3d
00000020: 4f53 0cbe 3ea6 ed3d d68c b63d 9685 a13c
00000030: 7426 933d 9d89 373d a68b 393b f7ca 3e3d
00000040: 993b cb3d 891e 873d 6ac7 f33d e479 083e
00000050: b326 82bc f43f ec3c e0e1 b23d 6d3f a0bd

conv_2.conv.1.weight f4 [24]
1.4183153 0.93456054 1.2693903 1.126128 1.0606321 0.9145851 1.2574173 1.3137066
0.96827006 1.2446303 1.2504498 0.96851397 1.0796626 1.0868299 0.97459596 1.252071
1.2866994 1.3708887 0.9836429 0.96369344 0.9884066 1.3383082 1.2591501 1.2689612
00000000: 5b8b b53f 5c3f 6f3f 627b a23f f624 903f
00000010: cbc2 873f 4022 6a3f 0df3 a03f 8a27 a83f
00000020: 8ce0 773f 0c50 9f3f bd0e a03f 88f0 773f
00000030: 6232 8a3f 3e1d 8b3f 1f7f 793f dd43 a03f
00000040: 91b2 a43f 4879 af3f 05d0 7b3f 9db4 763f
00000050: 3708 7d3f af4d ab3f d52b a13f 526d a23f

conv_2.conv.1.bias f4 [24]
0.32917774 -0.071841866 0.22793433 0.055118047 0.032134898 -0.10497423 0.21402152 0.26063493
-0.06072049 0.17009595 0.21791491 -0.08654098 0.04338284 0.056018762 -0.07062448 0.20663112
0.18892126 0.29720503 -0.08503897 -0.036630027 -0.0845763 0.25529814 0.20180084 0.22034687
00000000: fc89 a83e d421 93bd 9e67 693e 76c3 613d
00000010: e29f 033d bbfc d6bd 7528 5b3e f171 853e
00000020: 0cb6 78bd a22d 2e3e 1625 5f3e 663c b1bd
00000030: 34b2 313d ee73 653d 91a3 90bd 1c97 533e
00000040: 9374 413e 422b 983e e928 aebd 5e09 16bd
00000050: 5736 adbd 70b6 823e e1a4 4e3e 9ca2 613e

conv_2.conv.1.running_mean f4 [24]
0.6171318 -0.34389472 -0.5676079 -0.95756906 0.1123599 0.22310339 -0.5224897 0.6769109
-0.18233386 0.33284488 0.6301917 0.42072597 -0.9431256 -0.21395743 -0.3345997 -0.47356623
-1.0864799 -0.47927338 0.066696435 0.68892384 1.7114042 0.5529043 -0.29204103 0.6064788
00000000: 5afc 1d3f f812 b0be c04e 11bf 3f23 75bf
00000010: f21c e63d 3775 643e e3c1 05bf 084a 2d3f
00000020: bab5 3abe a56a aa3e 3e54 213f 6569 d73e
00000030: ae70 71bf a817 5bbe a750 abbe 4677 f2be
00000040: c611 8bbf 5263 f5be 2498 883d 505d 303f
00000050: 4b0f db3f 238b 0d3f 6786 95be 3242 1b3f

conv_2.conv.1.running_var f4 [24]
0.08101174 0.088984795 0.1168797 0.18487905 0.041257087 0.13426736 0.10310314 0.15892713
0.08396271 0.11467464 0.17196384 0.11668155 0.18898508 0.09780077 0.05337333 0.1191122
0.3007106 0.17547612 0.06899013 0.24422865 0.09330085 0.050191533 0.083292976 0.19278927
00000000: 7ce9 a53d a93d b63d a05e ef3d ef50 3d3e
00000010: 31fd 283d 627d 093e bd27 d33d cbbd 223e
00000020: a4f4 ab3d 8ada ea3d 4a17 303e bdf6 ee3d
00000030: 4e85 413e c54b c83d fe9d 5a3d 19f1 f33d
00000040: bdf6 993e 03b0 333e b34a 8d3d 1317 7a3e
00000050: 8414 bf3d a395 4d3d 8295 aa3d 8d6a 453e

flaten.conv.0.weight f4 [1, 24, 1, 1]
-0.22477312 0.0226023 -0.35771734 -0.11404983 -0.081712544 0.0784602 -0.33725294 -0.29112026
0.048513245 -0.1558093 -0.3406718 0.12056116 -0.12027707 -0.10950032 0.07836114 -0.34921837
-0.17545326 -0.22406289 0.13638864 -0.04474152 0.18810554 -0.2759442 -0.3795612 -0.29842407
00000000: ed2a 66be 7528 b93c ba26 b7be f592 e9bd
00000010: e858 a7bd beaf a03d 6bac acbe b70d 95be
00000020: d3b5 463d 798c 1fbe 896c aebe c5e8 f63d
00000030: d353 f6bd b441 e0bd ce7b a03d c0cc b2be
00000040: 05aa 33be be70 65be 77a9 0b3e e242 37bd
00000050: bd9e 403e 8f48 8dbe d855 c2be 0acb 98be
