model/CP5_val_0.009767.pth (torch, 11546 bytes, 13 tensors)

conv_1.conv.0.weight f4 [12, 2, 2, 2]
0	0x3df9dd30	0.12200391
1	0xbe38b4f3	-0.18037777
2	0xbee705f1	-0.4512172
3	0xbe2972ab	-0.16547649
4	0xbdb636d8	-0.08897179
5	0x3da3e876	0.08003323
6	0xbc0eacc5	-0.008708184
7	0x3e162756	0.14663443
8	0x3e9ea3b2	0.30984265
9	0x3d589378	0.052875012
10	0x3e1e19de	0.15439555
11	0x3e445c21	0.1917577
12	0xbeb3a1ed	-0.35084477
13	0xbeb509d0	-0.3535905
14	0xbea3be8e	-0.3198132
15	0xbdda728a	-0.10666378
16	0xbed49a67	-0.4152405
17	0xbe864b69	-0.26229408
18	0xbb606865	-0.0034241911
19	0xbc7ac5df	-0.015305965
20	0xbe4bf175	-0.19916327
21	0x3c71d9d1	0.014761404
22	0x3cdd62e3	0.027024692
23	0x3e2ce28b	0.16883294
24	0xbe210af4	-0.15726835
25	0x3e2f71bd	0.17133231
26	0xbd8f7b54	-0.07005945
27	0x3eb354c5	0.35025612
28	0x3d84d294	0.06485477
29	0xbde37135	-0.11105577
30	0x3ec03d75	0.37546888
31	0x3da5fa07	0.081043296
32	0x3e1a2230	0.15052104
33	0x3e632b41	0.22184469
34	0x3e98cde7	0.2984459
35	0xbd62f2ad	-0.055407215
36	0x3e9e9e05	0.30979934
37	0xbe52c387	-0.205824
38	0xbd9cc2e4	-0.0765436
39	0x3db7bb49	0.08971269
40	0xbd082d35	-0.033246238
41	0xbebe1e37	-0.37132427
42	0x3e25b106	0.1618081
43	0x3d9acaea	0.07558234
44	0x3dc55a5c	0.09636375
45	0xbeb430ff	-0.3519363
46	0xbe7584f3	-0.23976497
47	0x3e07a9ec	0.13248414
48	0x3da40cde	0.08010267
49	0xbe505e78	-0.20348537
50	0xbdf30408	-0.11866003
51	0xbe029876	-0.12753472
52	0x3ceedeec	0.029159032
53	0xbec947ef	-0.39312693
54	0x3d328148	0.043580323
55	0x3e058eaf	0.1304271
56	0xbe58c712	-0.2116969
57	0x3e105d70	0.14098144
58	0x3e953d21	0.291482
59	0x3e99fec6	0.3007719
60	0xbdae9180	-0.08523846
61	0x3c313aff	0.010817288
62	0x3eac3644	0.3363515
63	0xbe83189f	-0.25604722
64	0x3e46af08	0.19402707
65	0xbe663f78	-0.22485149
66	0x3e0a28ee	0.13492176
67	0x3e67c664	0.22634274
68	0xbe7c23cf	-0.24623035
69	0xbea5f4bf	-0.3241329
70	0xbeb14812	-0.34625298
71	0xbdc34a45	-0.0953565
72	0x3dc0ba6f	0.094105594
73	0x3e7b3f18	0.24535787
74	0xbe09e5ee	-0.13466617
75	0xbe5e7c44	-0.21727091
76	0xbe439575	-0.19099982
77	0xbe8cc2f2	-0.2749248
78	0xbece553a	-0.40299398
79	0xbe8df2c9	-0.27724293
80	0x3d77d6e4	0.06050767
81	0x3d157aed	0.036494184
82	0xbe8ce7a1	-0.2752047
83	0x3e05a3b3	0.13050728
84	0xbe5b4637	-0.21413504
85	0x3df273a7	0.11838465
86	0xbf040e6d	-0.5158451
87	0xbe2ceba3	-0.16886763
88	0xbdd646d2	-0.10462727
89	0x3c9b82aa	0.018983204
90	0x3e96dbcc	0.29464567
91	0xbe601d01	-0.21886064
92	0xbe562f4a	-0.20916477
93	0xbed61bc9	-0.41818073
94	0xbdf931d1	-0.12167705
95	0xbcdea0a3	-0.027176207

conv_1.conv.0.bias f4 [12]
0	0xbe823e3c	-0.25438106
1	0xbe4cf47b	-0.20015137
2	0xbae6a050	-0.0017595384
3	0xbc6f3ba8	-0.0146016255
4	0xbe454aab	-0.19266765
5	0xbe01e460	-0.12684774
6	0xbc9e2b49	-0.01930775
7	0xbda257d6	-0.079269096
8	0x3e8a22a7	0.26979563
9	0xbea3c16b	-0.31983504
10	0xbe987160	-0.29773998
11	0x3eb07826	0.34466666

conv_1.conv.1.weight f4 [12]
0	0x3f811780	1.0085297
1	0x3f7903e7	0.9727158
2	0x3f81e7b8	1.014884
3	0x3f5874a6	0.8455299
4	0x3f5f0bef	0.87127584
5	0x3f606209	0.8764959
6	0x3f87eca8	1.0619097
7	0x3f538507	0.8262486
8	0x3f88c65d	1.0685536
9	0x3f8741bf	1.0566939
10	0x3f902aa1	1.1263009
11	0x3f820fb7	1.0161046

conv_1.conv.1.bias f4 [12]
0	0xbddb1d17	-0.10698908
1	0xbea57dba	-0.32322484
2	0xbd9622e4	-0.073308736
3	0x3b5de726	0.00338597
4	0x3e59264c	0.21206015
5	0xbd670a70	-0.05640644
6	0xbb539821	-0.003228672
7	0x3e0cec8e	0.13762113
8	0xbe7705c5	-0.24123295
9	0xbe443805	-0.19161995
10	0xbdbb5db5	-0.091487326
11	0xbe5d59cb	-0.21616285

conv_1.conv.1.running_mean f4 [12]
0	0xc218784b	-38.117474
1	0xc21df24a	-39.48661
2	0xc242dd24	-48.715958
3	0x42565197	53.579678
4	0x4253e7c2	52.976326
5	0xc223441e	-40.81652
6	0xc225dbde	-41.464714
7	0x42164b73	37.57368
8	0xc2622b0a	-56.54203
9	0xc2b88951	-92.268196
10	0xc28352f7	-65.66204
11	0xc278139c	-62.01915

conv_1.conv.1.running_var f4 [12]
0	0x445eb19e	890.77527
1	0x450aa2dd	2218.179
2	0x44fb2932	2009.2874
3	0x44ead461	1878.6368
4	0x44bc3a90	1505.8301
5	0x44d89bc5	1732.8678
6	0x44af0196	1400.0496
7	0x44bcda3d	1510.82
8	0x451b72c9	2487.174
9	0x458a77fb	4430.9976
10	0x456eeb8c	3822.7217
11	0x451c6e9a	2502.9126

conv_2.conv.0.weight f4 [24, 12, 2, 2]
0	0x3e02fcdd	0.12791772
1	0x3d40869e	0.04700338
2	0xbbef9bd9	-0.0073122797
3	0x3ccefc10	0.025266677
4	0xbe14f87c	-0.14547914
5	0xbd01467a	-0.031561352
6	0xbe05a0ba	-0.13049594
7	0x3dc67870	0.096909404
8	0xbd68c5c1	-0.056829218
9	0x3d074f17	0.03303441
10	0xbcaec200	-0.02133274
11	0x3dbdc127	0.092653565
12	0xbc7e6a18	-0.015528224
13	0xbd03743d	-0.032093275
14	0xbd065990	-0.032800257
15	0xbc634542	-0.013871493
16	0xbd2ab8d4	-0.041680172
17	0xbc814d59	-0.015783953
18	0x3d14e622	0.036352284
19	0xbd379eee	-0.0448293
20	0x3d7292d2	0.05922205
21	0x3c6a44b6	0.0142986085
22	0xbcb9b4f6	-0.022669297
23	0xbcdd4add	-0.027013237
24	0xbbfecff6	-0.0077762557
25	0x3df94fa2	0.12173392
26	0x3d48313b	0.048875075
27	0x3df16870	0.11787498
28	0x3c8cbc1a	0.017179538
29	0xbb383641	-0.002810851
30	0x3d3bcc86	0.045849346
31	0x3d0fd8b2	0.035118766
32	0x3d64b2c7	0.055834558
33	0x3d42d89c	0.047569856
34	0xbc60a7fd	-0.0137119265
35	0xbd5c90d8	-0.05384907
36	0x3c6b9592	0.014378922
37	0xbe1bc38f	-0.15211318
38	0x3d20a0fb	0.039216023
39	0xbe1784e8	-0.14796793
40	0x3e2de8b0	0.16983294
41	0xbd040e66	-0.032240294
42	0x3e594426	0.21217403
43	0xbd039a13	-0.03212936
44	0x3d2837c6	0.041068815
45	0x3e293f69	0.16528095
46	0xbc8bfaca	-0.017087359
47	0xbda7c8a4	-0.08192566
48	0xbc9aea82	-0.01891065
49	0x3da57571	0.08079041
50	0xbd55c215	-0.052187044
51	0xbde03ebe	-0.10949467
52	0xbe181077	-0.14850031
53	0xbc71bb31	-0.014754103
54	0xbe30d65d	-0.17269273
55	0x3d4e34e9	0.050343428
56	0x3dc8b290	0.09799683
57	0xbd2d54c9	-0.042317186
58	0x3e26c36b	0.16285484
59	0x3d2f87a4	0.042853966
60	0x3d01b408	0.03166583
61	0x3d653ca7	0.055966046
62	0x3d10e0a2	0.035370477
63	0x3d0073c9	0.03136042
64	0xbb7c1aaf	-0.0038468053
65	0xbd76b1bc	-0.060228094
66	0x3b9ea34f	0.0048412452
67	0xbda1b400	-0.078956604
68	0x3d367dab	0.04455344
69	0xbdea32a1	-0.11435438
70	0xbe07bfbc	-0.13256735
71	0x3c4c048d	0.012452257
72	0xbdcc9963	-0.09990194
73	0x3dc46fc7	0.09591632
74	0x3d55c8ac	0.05219333
75	0x3dfe2cc9	0.12410886
76	0x3d7bdb27	0.061488297
77	0xbd883f7f	-0.06652736
78	0x3cde512c	0.027138315
79	0xbdc942ae	-0.09827171
80	0xbdfb5477	-0.1227197
81	0xbd923728	-0.071394265
82	0x3d252c22	0.04032529
83	0xbe120f26	-0.14263591
84	0x3d0af608	0.03392604
85	0xbe0a4e1d	-0.1350636
86	0x3b8a3e3c	0.0042188447
87	0xbda469b5	-0.080279745
88	0x3cf192e8	0.029488996
89	0xbdc20fcb	-0.094756685
90	0xbd53a598	-0.051671594
91	0x3ccd8860	0.025089443
92	0xbca82d46	-0.0205294
93	0x3db1e598	0.0868637
94	0xbd509ef4	-0.05093284
95	0x3c7464d7	0.01491662
96	0xbd6c4de7	-0.05769148
97	0x38b6a731	8.709578e-05
98	0xbde7272e	-0.1128677
99	0x3d812b6e	0.06307112
100	0xbe17bd84	-0.14818388
101	0x3da900d1	0.08252109
102	0xbda033cf	-0.07822382
103	0xbd9b7c37	-0.075920515
104	0xbc97ae0d	-0.018515611
105	0x3e39f816	0.18161044
106	0xbda22d1b	-0.079187594
107	0xbcbe88d7	-0.02325861
108	0x3d8f2965	0.06990317
109	0x3b380127	0.0028076859
110	0xbd3061d8	-0.04306206
111	0xbd09c9bd	-0.03363966
112	0x3c865132	0.016396139
113	0xb998bfd5	-0.00029134625
114	0xbcd09e7c	-0.025466196
115	0x3de9ead9	0.11421747
116	0xbd38ee01	-0.045148853
117	0xbdc6e6e7	-0.0971201
118	0x3d6ba3d2	0.057529278
119	0xbdb21985	-0.08696274
120	0xbd071c26	-0.03298583
121	0xbca354be	-0.01993787
122	0x3e1d127c	0.15339082
123	0x3d80d969	0.06291468
124	0xbc251b8b	-0.010077368
125	0xbcb768d8	-0.02238886
126	0xbd19be3e	-0.037534945
127	0xbd6885de	-0.05676829
128	0x3de961af	0.11395585
129	0xbe13d596	-0.14436945
130	0xbcc83df1	-0.024443598
131	0xbd1a61e4	-0.037691012
132	0x3cfe5f1a	0.031051207
133	0x3db1494c	0.086565584
134	0xbe0649e6	-0.13114128
135	0x39b8b375	0.0003522892
136	0x3becf2d1	0.0072310944
137	0xbd466bd9	-0.048442695
138	0xbe4e44c9	-0.20143427
139	0xbdafdfed	-0.08587632
140	0x3d3f6510	0.04672724
141	0x3d744fe8	0.059646517
142	0x3dace59b	0.08442231
143	0x3db9a291	0.0906421
144	0xbddae183	-0.10687544
145	0x3dc8fd37	0.09813922
146	0xbe1e0ef2	-0.15435389
147	0xbde7345a	-0.11289282
148	0xbd3df819	-0.046379182
149	0xbe201301	-0.1563225
150	0x3c328239	0.010895305
151	0x3d513cbb	0.051083308
152	0xbd2651a6	-0.04060521
153	0xbdb1fbd1	-0.08690608
154	0x397f4e2f	0.0002434782
155	0x3d99d1d7	0.07510727
156	0xbc82c83d	-0.015964622
157	0xbd881a1e	-0.066456065
158	0x3ddbe1ff	0.10736465
159	0x3c05a880	0.008157849
160	0xbc6d94cd	-0.014500809
161	0xbd5cc767	-0.053901102
162	0xbcf12bf6	-0.029439908
163	0x3dbd00fa	0.09228702
164	0xbd332e37	-0.043745246
165	0xbd108b28	-0.03528896
166	0xbdbc90dc	-0.09207317
167	0x3b2cdabe	0.0026375498
168	0x3d4904d1	0.04907686
169	0xbe0d57fe	-0.13803098
170	0x3bd1e11c	0.006405009
171	0x3df258fc	0.11833379
172	0x3d7998e1	0.060936812
173	0xba70df03	-0.0009188505
174	0x3d8d9aeb	0.06914314
175	0x3d2ca1a3	0.042146336
176	0xbd08bd10	-0.03338343
177	0x3df555ca	0.119792536
178	0x3c4794b1	0.012181447
179	0xbdf1b206	-0.118015334
180	0xbd165e28	-0.03671089
181	0xbe1978b9	-0.14987458
182	0xbdda0994	-0.10646358
183	0xbe27009c	-0.16308826
184	0xbd4c2e9b	-0.049849134
185	0xbd82966a	-0.063763455
186	0xbe152bc6	-0.1456748
187	0xbd777b9c	-0.060420617
188	0x3d6fffd4	0.058593586
189	0x3d3a8ff9	0.04554746
190	0xbd581a65	-0.052759547
191	0xbca31696	-0.01990823
192	0xbda19a92	-0.0789081
193	0x39ebb707	0.0004495906
194	0x3dae9af7	0.08525651
195	0xbd7a71d8	-0.061143726
196	0xbd9e814f	-0.077395074
197	0x3a830ab8	0.0009997701
198	0xbd9f50f9	-0.07779116
199	0xbdfe3146	-0.12411742
200	0x3de46e0b	0.111538015
201	0xbcbaca4a	-0.022801537
202	0xbdcb6c0e	-0.09932719
203	0xbdb8d535	-0.09025041
204	0x3c99d242	0.018777017
205	0x3cebe113	0.028793847
206	0x3d4de8ed	0.050270963
207	0xbd23a19e	-0.039949052
208	0x3cee361d	0.029078538
209	0x3d67df01	0.056609157
210	0xbe198583	-0.14992337
211	0x3de2b832	0.11070289
212	0xbcf823d4	-0.030290522
213	0xbd6ac523	-0.05731691
214	0xbc041360	-0.00806126
215	0x3d9f6f54	0.07784906
216	0xbdfc18c1	-0.12309409
217	0x3c963e45	0.01834024
218	0xbd15b8d9	-0.036553238
219	0xbc7b1d24	-0.015326772
220	0xbb3e0eec	-0.0029000593
221	0x3b8a5cb4	0.004222477
222	0x3dc55e73	0.096371554
223	0xbdff93a4	-0.12479332
224	0x3d275a72	0.04085774
225	0x3d7e9941	0.062157873
226	0x3ddb3f5d	0.10705445
227	0x3d0d4047	0.034485128
228	0xbd73fcd4	-0.059567288
229	0x3d8234c0	0.063577175
230	0x3b5e248b	0.0033896293
231	0x3b898155	0.004196326
232	0xbd81bb21	-0.0633452
233	0xbde1590e	-0.11003314
234	0x3de33bcd	0.110953905
235	0x3dad637f	0.08466243
236	0x3db523a7	0.08844691
237	0x3d004d68	0.03132382
238	0xbd921912	-0.07133688
239	0xbd3fa295	-0.04678591
240	0xbd9c7d9c	-0.076411456
241	0x3ddc741b	0.10764333
242	0x3a81f4fc	0.000991493
243	0x3e022aeb	0.12711684
244	0xbc6284fe	-0.013825653
245	0xbdc6535a	-0.09683867
246	0x3c8da769	0.017291741
247	0xbd44a77b	-0.048011284
248	0xbd93d97c	-0.07219216
249	0x3d8058e7	0.06266957
250	0x3d78da1e	0.060754888
251	0x3e1718e0	0.14755583
252	0x3d1428af	0.03617161
253	0x3e1ae5fc	0.15126795
254	0x3d26d984	0.040734783
255	0x3df72dc5	0.12069277

conv_2.conv.0.bias f4 [24]
0	0x3d4d9638	0.050192088
1	0x3b583941	0.003299311
2	0xbddf621f	-0.10907387
3	0xbdfd81ca	-0.12378271
4	0xbc8e21b4	-0.017350055
5	0x3e0bd836	0.13656697
6	0xbc9dfd1e	-0.019285735
7	0x3dcb5b19	0.09929485
8	0xbe0c484e	-0.13699457
9	0x3ded76d2	0.11594929
10	0x3db5fa4d	0.08885632
11	0x3ca18f64	0.019721694
12	0x3d935847	0.07194572
13	0x3d378011	0.044799868
14	0x3b57d595	0.0032933701
15	0x3d407e18	0.046995252
16	0x3dcac36a	0.099005535
17	0x3d876330	0.066107154
18	0x3df3d4b8	0.11905807
19	0x3e0874ab	0.13325755
20	0xbc8e13c9	-0.017343419
21	0x3cf515e7	0.02991767
22	0x3db26375	0.08710376
23	0xbda0106e	-0.07815634

conv_2.conv.1.weight f4 [24]
0	0x3fba6008	1.4560556
1	0x3f6f6b38	0.9352298
2	0x3fa6e1fa	1.3037713
3	0x3f961485	1.1725012
4	0x3f8d1ed5	1.1025034
5	0x3f6a4ece	0.91526496
6	0x3fa53734	1.2907472
7	0x3fac573c	1.3464122
8	0x3f7d3c3e	0.9892005
9	0x3fa46757	1.2844037
10	0x3fa3a9c1	1.278618
11	0x3f7c80a9	0.9863382
12	0x3f8eb197	1.1147946
13	0x3f8fa093	1.1220878
14	0x3f7e7412	0.9939586
15	0x3fa42525	1.2823836
16	0x3fa9d131	1.3266965
17	0x3fb53c0c	1.415895
18	0x3f807b53	1.0037636
19	0x3f7c2de2	0.9850751
20	0x3f816d8d	1.0111557
21	0x3faff346	1.3746116
22	0x3fa58aaa	1.2932942
23	0x3fa627b3	1.2980865

conv_2.conv.1.bias f4 [24]
0	0x3eb15f68	0.34643102
1	0xbd95b2ba	-0.0730948
2	0x3e7bbcbe	0.24583718
3	0x3d8b5f27	0.06805258
4	0x3d5010cd	0.050797272
5	0xbddabbd5	-0.10680357
6	0x3e6b3235	0.22968371
7	0x3e8e8696	0.27837056
8	0xbd6823f7	-0.056674924
9	0x3e3e7be1	0.18601944
10	0x3e7005b7	0.2343968
11	0xbdaa0567	-0.08301812
12	0x3d7c2989	0.06156305
13	0x3d99c378	0.07507986
14	0xbd840c35	-0.06447641
15	0x3e6335c5	0.2218848
16	0x3e513e4e	0.20433924
17	0x3ea0f00e	0.31433147
18	0xbda374e3	-0.07981279
19	0xbcaabed2	-0.020842943
20	0xbda24ef6	-0.07925217
21	0x3e8aabff	0.27084348
22	0x3e5e4a68	0.21708071
23	0x3e7230ff	0.23651503

conv_2.conv.1.running_mean f4 [24]
0	0x3f21dd4e	0.6322831
1	0xbeb35106	-0.35022753
2	0xbf0a15d9	-0.53939587
3	0xbf6c6afc	-0.92350745
4	0x3deff00f	0.117157094
5	0x3e251bc4	0.16123873
6	0xbef80ae8	-0.4844582
7	0x3f36278d	0.711541
8	0xbe36929b	-0.17829363
9	0x3ea8a2e2	0.3293677
10	0x3f26af50	0.65111256
11	0x3f036e71	0.51340395
12	0xbf60467f	-0.8760757
13	0xbe422bb5	-0.18961985
14	0xbec81433	-0.3907791
15	0xbee55502	-0.44791418
16	0xbf84f375	-1.0386797
17	0xbee254a0	-0.4420519
18	0xbd062ae8	-0.032755762
19	0x3f301b94	0.6879208
20	0x3fcb0025	1.5859419
21	0x3f0c8ef5	0.54905635
22	0xbe8b1191	-0.2716184
23	0x3f2184e6	0.6309341

conv_2.conv.1.running_var f4 [24]
0	0x3d8ad8c6	0.067796275
1	0x3db13b00	0.086538315
2	0x3de8e00e	0.1137086
3	0x3e37bd7b	0.17943375
4	0x3d1858f3	0.037194204
5	0x3e07de95	0.13268502
6	0x3db606ff	0.08888053
7	0x3e140e73	0.14458637
8	0x3d8d8459	0.06910009
9	0x3dc6db6f	0.097098224
10	0x3e2391d7	0.15973602
11	0x3dd1f9d7	0.10252731
12	0x3e2ad21a	0.1668171
13	0x3db7f217	0.08981722
14	0x3d2f5ccb	0.042813104
15	0x3ddc5020	0.1075747
16	0x3e9105ea	0.28324825
17	0x3e2049f1	0.15653206
18	0x3d63f219	0.055650804
19	0x3e91523a	0.28383046
20	0x3d917ae2	0.07103516
21	0x3d21d0d3	0.03950579
22	0x3d9bf2ad	0.07614646
23	0x3e38157d	0.17976947

flaten.conv.0.weight f4 [1, 24, 1, 1]
0	0xbe80d045	-0.25158897
1	0x3ccdaeab	0.025107702
2	0xbec51fd4	-0.38500845
3	0xbe114981	-0.14188196
4	0xbddb7e13	-0.10717406
5	0x3da3c543	0.07996609
6	0xbeb9f8e1	-0.36322692
7	0xbea20a05	-0.3164827
8	0x3d88dd7d	0.066828705
9	0xbe3a516f	-0.18195127
10	0xbeba3e6a	-0.36375743
11	0x3e0ca4a4	0.1373468
12	0xbe15b709	-0.14620604
13	0xbe082600	-0.13295746
14	0x3dc3bd0b	0.095575415
15	0xbebf1a2e	-0.3732466
16	0xbe4f64b4	-0.20253259
17	0xbe810381	-0.25197986
18	0x3e1ed985	0.15512665
19	0xbd8c4199	-0.06848449
20	0x3e56bb0a	0.20969787
21	0xbe9b3dd9	-0.30320624
22	0xbed038fa	-0.4066847
23	0xbea44698	-0.3208511
