model/CP6_val_0.007355.pth (torch, 11546 bytes, 13 tensors)

conv_1.conv.0.weight f4 [12, 2, 2, 2]
00000000: c9f4 fb3d 3a8e 39be 18e1 e2be 19c5 27be
00000010: 845d abbd 6957 a93d c67b 483b 07c3 233e
00000020: 9983 9e3e 261b 6e3d 5828 1b3e 2ada 3e3e
00000030: 119f b4be fc51 b5be cf71 a4be 3b96 e0bd
00000040: 4c52 d5be bf4e 81be fbce 80bb df3d 51bc
00000050: 1e7b 52be e832 833c 062c d23c 2a7e 2d3e
00000060: 1a5a 20be 3ede 313e a1e6 88bd b8e9 b23e
00000070: 8f38 783d 5dd0 eabd 5983 c03e 8117 a33d
00000080: 9c28 1f3e 9465 633e 9ddd 973e e973 44bd
00000090: d3e6 a03e 9190 4bbe af3f 8ebd efd3 bb3d
000000a0: 142b 33bd 039a c4be 29e1 223e f3da 973d
000000b0: 6d35 bf3d be97 b3be e106 72be 184e 023e
000000c0: b9eb ab3d a827 4cbe df0c fbbd d7d8 06be
000000d0: a1a6 b33c a5a9 c9be 2f72 1f3d 8028 013e
000000e0: 0301 58be 0786 0a3e 4edd 923e d689 983e
000000f0: 766f a8bd df7d 093b 2502 ad3e abac 86be
00000100: ad2d 463e cfde 64be 0e66 043e 0b24 643e
00000110: 3698 7bbe 6017 a9be 6c60 b4be 12aa d3bd
00000120: 57bf c33d d3b2 7b3e f91c 07be 8a20 58be
00000130: e57c 49be 14ed 8dbe 4b1d d1be ad04 91be
00000140: 944f 7b3d 6a1b 293d df85 89be 71d4 093e
00000150: 9045 5ebe b8cb ea3d 336e 06bf 23dd 28be
00000160: 3dd4 d2bd 728b 993c 667e 953e 60c2 58be
00000170: 9b3d 61be f1e2 d8be 7ec3 f9bd ff19 11bd
0.123025484 -0.18120661 -0.44312358 -0.1638378 -0.08367446 0.08268625 0.0030591353 0.15992366
0.30959776 0.05813136 0.15152109 0.1863791 -0.35277608 -0.35414112 -0.3211808 -0.10966154
-0.4166435 -0.2525539 -0.003930924 -0.012771099 -0.20554778 0.016015485 0.025655758 0.16942659
-0.15659371 0.17369935 -0.06684614 0.34943938 0.060600813 -0.114655234 0.3760021 0.079634674
0.15542835 0.22206718 0.29661265 -0.047962103 0.31426105 -0.19879366 -0.069457404 0.091712825
-0.043742254 -0.38398752 0.15906204 0.07414808 0.09336362 -0.35076708 -0.23635437 0.12725103
0.0839457 -0.19937003 -0.12258314 -0.13168655 0.02193004 -0.3938724 0.038927253 0.12613106
-0.21094136 0.1352769 0.28684467 0.2979266 -0.082243845 0.0020979566 0.337907 -0.2630361
0.19353361 -0.2235062 0.12929556 0.22279374 -0.24569783 -0.33025646 -0.35229814 -0.10335173
0.095579796 0.24579935 -0.13194646 -0.21106163 -0.1967655 -0.2771994 -0.4084266 -0.2832388
0.06135519 0.04128591 -0.26859948 0.13459946 -0.21706223 0.114646375 -0.525119 -0.16490607
-0.102943875 0.01874325 0.29197997 -0.21167898 -0.21996157 -0.42360643 -0.1219549 -0.035425182

conv_1.conv.0.bias f4 [12]
00000000: 6e3b 82be 31f4 4cbe f9a5 e6ba 7e4a 6fbc
00000010: 284a 45be bfe5 01be 7918 9ebc 1b55 a2bd
00000020: 5722 8a3e bac1 a3be dd70 98be 8679 b03e
-0.25435966 -0.20015027 -0.0017597071 -0.014605163 -0.1926657 -0.12685297 -0.019298779 -0.07926389
0.26979324 -0.3198374 -0.29773608 0.34467715

conv_1.conv.1.weight f4 [12]
00000000: 5ea0 813f d2c1 783f b16e 813f a8df 563f
00000010: 369b 5d3f 74f3 5f3f 2876 883f 4466 513f
00000020: 3db8 883f e2ef 853f 25fd 8f3f fba7 813f
1.0127065 0.97170746 1.0111905 0.8393502 0.8656496 0.87480855 1.0661058 0.8179667
1.0681225 1.0463831 1.1249129 1.0129389

conv_1.conv.1.bias f4 [12]
00000000: dfab e1bd ebad aebe aabd 9fbd 11e3 f4ba
00000010: ff03 6a3e e7d0 6cbd 9da5 41bb 8b68 193e
00000020: 1e08 87be bb53 60be 544d d4bd 399e 7fbe
-0.1101911 -0.34117064 -0.077998474 -0.0018683394 0.22853087 -0.057816412 -0.0029548176 0.14981286
-0.2637338 -0.2190694 -0.10366312 -0.24962701

conv_1.conv.1.running_mean f4 [12]
00000000: 2162 09c2 8bf3 18c2 3a02 3ec2 882b 4f42
00000010: 9b86 5842 5182 27c2 77dd 26c2 2c88 0c42
00000020: 4289 61c2 24d6 b3c2 921a 7dc2 1fc3 75c2
-34.34583 -38.237835 -47.502174 51.79251 54.13145 -41.877262 -41.716274 35.13298
-56.38404 -89.91824 -63.275948 -61.440548

conv_1.conv.1.running_var f4 [12]
00000000: f191 4744 ba14 fc44 e2ea f744 d583 e244
00000010: c72e c144 0c1d dc44 2c0f ab44 2fb0 b544
00000020: 58f0 1545 ec60 8645 3498 6545 c369 1a45
798.28033 2016.6477 1983.3401 1812.1198 1545.4618 1760.9077 1368.4741 1453.5057
2399.0215 4300.115 3673.5127 2470.61

conv_2.conv.0.weight f4 [24, 12, 2, 2]
00000000: 68f4 f93d ef12 223d c1f8 05bc 1380 b93c
00000010: f288 19be 9de8 05bd e99e 07be 34ab c53d
00000020: 59a3 7abd ae0a 033d 472a c1bc ca77 b93d
00000030: 3100 89bc 3dfa f5bc e56d f9bc 94f8 4dbc
00000040: 586f 22bd 44cd 5fbc 0cb0 143d d89c 31bd
00000050: 5440 643d e074 663c 0995 c3bc 3605 d5bc
00000060: 2609 23bc c89f f43d 7236 4b3d 60ee f83d
00000070: a4e7 6c3c 6e4c e4ba b305 3e3d 5ea8 0d3d
00000080: 8c32 633d 607f 4d3d eaf4 6ebc f6ee 63bd
00000090: 9036 403c 9e3c 1fbe 9df4 153d a791 16be
000000a0: 302d 2d3e e48f 01bd d28f 573e dba4 d7bc
000000b0: 05c3 2d3d d5c2 253e f461 9bbc e149 a6bd
000000c0: b2f1 5ebc 984e b73d 1ba8 39bd ea3c d2bd
000000d0: a3e5 14be ffd5 91bc c954 2fbe 3976 4b3d
000000e0: 5e37 c93d 6dc1 2abd d1c5 263e 42b8 393d
000000f0: 756f 033d 87d5 6c3d 7db3 033d ac70 f23c
00000100: 390a a4bb 4bf2 7fbd 29bf 2b3a 3ce2 a6bd
00000110: e161 2e3d a35c ebbd a9a5 06be b729 2a3c
00000120: 9afc cbbd 8a1a c43d 967f 5d3d eb5c fa3d
00000130: db1f 6c3d 3aa3 8ebd 3211 c23c 7ef9 cebd
00000140: 70fe fdbd 0afb 96bd 3aff 233d cd34 12be
00000150: b7d8 e13c 4a23 0fbe f019 ae3b 6b71 a8bd
00000160: 647a e93c 1ddf d0bd 2b62 51bd 703c c73c
00000170: 3ff4 bdbc 2fe3 a93d 6129 51bd 2774 463c
00000180: 395b 7abd 40da dfba c017 ebbd 8291 6d3d
00000190: 8d45 19be 68b4 993d aef9 9dbd de44 a2bd
000001a0: 4ebf 9bbc 50c1 373e 033d a1bd cf36 b8bc
000001b0: c7f9 8f3d 5217 863b 0a15 29bd 7453 05bd
000001c0: ab5f 8c3c 8603 8a3b ad32 d0bc 2ae2 f03d
000001d0: 6eee 45bd 36c7 c8bd 8d7a 6a3d abdb b2bd
000001e0: b0cf 07bd add7 e6bc 97c2 253e 24b6 813d
000001f0: 4e6c 51bc a6c1 d6bc b10e 19bd a051 6abd
00000200: de34 e93d ac7f 15be fa9f cfbc ea80 22bd
00000210: 5ab5 b93c f45b a83d d2e5 04be d19d 93bb
00000220: 4667 ad3b c9c0 6fbd cd1f 49be da0c b6bd
00000230: 2e3f 393d f1ef 6e3d 377b a93d c5fe b63d
00000240: 2412 e6bd 35e1 b83d 55d9 21be f248 edbd
00000250: 2b9e 45bd 3ade 23be b6d9 3c3c 5ff4 413d
00000260: ba18 0cbd d9fd b0bd 7176 96ba 9a15 993d
00000270: e5a5 71bc cbaf 83bd d1ab d03d 9ca4 d63b
00000280: 7df4 58bc 95c9 40bd c0f8 0abd e10c b63d
00000290: e6b9 34bd d82d 0dbd 3f11 b6bd 716c 15ba
000002a0: e951 423d 2b5a 18be 5b42 a13c bdf5 f13d
000002b0: ad4b 7a3d 25f8 ba3a 48f2 7a3d 2303 0f3d
000002c0: f846 ffbc da8d f43d 990c 3b3c 5aa2 f3bd
000002d0: fa2d 29bd 6170 1dbe b181 d2bd f805 27be
000002e0: 086a 45bd 80ef 94bd c9a9 12be 34f8 77bd
000002f0: 3586 653d 8f9d 373d e1a8 4fbd 9ebb a9bc
00000300: bb51 a7bd 714a 0dbc 1674 a93d 8a1a 83bd
00000310: 973f 9bbd f90e e7b9 8c54 9cbd e9ca 01be
00000320: d193 e53d 9bc1 b2bc b9a6 c2bd facc b8bd
00000330: 39fb 4f3c eadd df3c b768 3c3d f822 22bd
00000340: 6105 b83c 38af 653d 380b 1dbe 6795 eb3d
00000350: a54f e6bc 87d8 67bd 59ec ddbb 47e1 9a3d
00000360: 92d6 edbd e12f 683c e44a 0dbd f426 71bc
00000370: cb92 33bc c337 a13b 4730 c13d d1d4 febd
00000380: a1c2 363d cc9e 803d 025e da3d 230e 023d
00000390: 459f 7bbd fbe1 7f3d efeb a93b 0dc8 0b3b
000003a0: be3c 6abd 28eb efbd 19e5 e93d da54 b63d
000003b0: edbc ba3d 9e84 033d a2bd 91bd b07e 4cbd
000003c0: c6a9 8abd 18d9 f03d 9ef3 273c 86ea 0e3e
000003d0: 23cd 0bbc e1ff bdbd 3fe6 643c 0786 3fbd
000003e0: 6dfd 8cbd aa18 883d b9d0 8e3d 5ea8 223e
000003f0: 9453 f13c 1c97 0f3e 4a5f 0c3d 7c99 db3d
0.1220482 0.039568838 -0.008176983 0.022644078 -0.14993647 -0.03269254 -0.13244213 0.09651795
-0.061190937 0.031992607 -0.02357973 0.09056051 -0.016723724 -0.03002655 -0.03044791 -0.012571473
-0.039656967 -0.013659779 0.036300704 -0.04336247 0.05572541 0.014065951 -0.023874776 -0.026003461
-0.009950912 0.11944538 0.04961247 0.121548414 0.014459524 -0.0017417797 0.046392154 0.034584396
0.055468127 0.050170302 -0.014584759 -0.055647813 0.011731759 -0.15550467 0.036610235 -0.14704
0.16911769 -0.031631365 0.21050957 -0.026323726 0.042422313 0.16187604 -0.018967606 -0.0811956
-0.013607429 0.089505374 -0.045326333 -0.10265525 -0.14540724 -0.017802237 -0.17122187 0.049673293
0.098250136 -0.04168837 0.16286398 0.045341738 0.032088716 0.057820823 0.032153595 0.029594742
-0.0050061014 -0.062486928 0.00065516174 -0.081486195 0.042573813 -0.114922784 -0.13149132 0.010385922
-0.09960289 0.095753744 0.054076754 0.12224754 0.057647567 -0.06964727 0.02368984 -0.101061806
-0.12402046 -0.07372101 0.040038325 -0.14277954 0.027569158 -0.13978305 0.0053131506 -0.08224758
0.028500743 -0.101988055 -0.05111901 0.024320811 -0.023187755 0.08295285 -0.051064853 0.012112654
-0.061122153 -0.0017078593 -0.11479139 0.058000095 -0.14967938 0.07505113 -0.07713638 -0.079232916
-0.01901212 0.17944837 -0.07872965 -0.022487072 0.07030063 0.0040921355 -0.04127983 -0.03255029
0.017135462 0.004211846 -0.02541479 0.11761887 -0.048323087 -0.098036215 0.05724578 -0.087333046
-0.03315705 -0.028179014 0.16187511 0.06333569 -0.0127821695 -0.026215386 -0.037367526 -0.05720675
0.11387037 -0.14599484 -0.025344837 -0.039673723 0.022669483 0.08220664 -0.12978294 -0.004504897
0.005291852 -0.058533464 -0.19641037 -0.0888917 0.04522627 0.058334295 0.082754545 0.08935312
-0.11233929 0.0902733 -0.15805562 -0.11586179 -0.048246544 -0.16002741 0.011526516 0.04735219
-0.03420327 -0.086421676 -0.001147939 0.07474823 -0.014749025 -0.06430014 0.101890214 0.0065503847
-0.013241884 -0.047067244 -0.033928633 0.08889175 -0.0441226 -0.034467548 -0.08890008 -0.0005700058
0.047441397 -0.14878146 0.019684961 0.11814449 0.061107326 0.0014264627 0.061266214 0.0349151
-0.03116177 0.119411185 0.011416578 -0.118962005 -0.041303612 -0.153749 -0.10278643 -0.1631087
-0.048196822 -0.072722435 -0.1432258 -0.06053944 0.056036193 0.044827994 -0.050698165 -0.020719346
-0.08169886 -0.008623705 0.08274095 -0.06401546 -0.07580488 -0.0004407091 -0.076333135 -0.1267506
0.11209834 -0.021820834 -0.09504456 -0.09023471 0.0126941735 0.027327497 0.0459983 -0.03958413
0.022463502 0.056075305 -0.15336311 0.115031056 -0.02811415 -0.05660298 -0.0067725596 0.075624995
-0.11613192 0.0141715715 -0.03449525 -0.01471876 -0.010960291 0.0049199774 0.09433036 -0.12442935
0.044619206 0.06280288 0.10662462 0.031751763 -0.061431188 0.06247137 0.005185596 0.0021328956
-0.057186835 -0.11714774 0.1142065 0.08902903 0.09118066 0.032108895 -0.07116248 -0.049925506
-0.06770663 0.11760157 0.010250954 0.13956651 -0.008532795 -0.09277321 0.013970911 -0.046758678
-0.06884275 0.06645329 0.069734044 0.1588454 0.029458798 0.14022487 0.034270562 0.10722634

conv_2.conv.0.bias f4 [24]
00000000: cad6 4f3d e8d2 573b e4ee debd 239d fdbd
00000010: e71d 8fbc abdb 0b3e 227c a1bc 4a25 cc3d
00000020: 1e44 0cbe 2f79 ec3d e883 b63d 3fef a03c
00000030: 0338 933d 88a3 373d dafd 5a3b 05be 3f3d
00000040: 6395 ca3d a2a4 873d e341 f33d a075 083e
00000050: db39 95bc 063c f13c 2726 b33d 7e44 a1bd
0.05074195 0.0032932106 -0.108854085 -0.12383487 -0.017470313 0.13658015 -0.019712511 0.0996805
-0.1369786 0.115465514 0.08911878 0.019645331 0.07188418 0.04483369 0.0033415467 0.046812076
0.098917745 0.06623198 0.11877801 0.1332612 -0.018216064 0.029447567 0.08747511 -0.07874392

conv_2.conv.1.weight f4 [24]
00000000: 1dae bd3f 7614 703f 14ab aa3f 1645 9b3f
00000010: b557 923f 388f 6b3f ccf7 a83f a638 af3f
00000020: 1525 813f 01f9 a73f b82d a63f 437a 803f
00000030: 6dd2 913f 05dc 923f cfb1 813f 4f1b a73f
00000040: cd2a ad3f 3557 ba3f 5bef 823f 93fb 813f
00000050: 2a60 843f 703b b33f 440d a93f 85e7 a83f
1.481876 0.9378122 1.3333459 1.2130458 1.1433016 0.9201541 1.3200622 1.3689163
1.0089442 1.3122865 1.2982702 1.0037311 1.1392342 1.1473395 1.0132388 1.3055209
1.3528687 1.4557863 1.0229295 1.0154899 1.0341847 1.4002514 1.3207173 1.3195654

conv_2.conv.1.bias f4 [24]
00000000: 3108 b73e 7b3b 98bd bdf8 823e f55c 9e3d
00000010: 7a19 893d 7629 d9bd ac22 753e 6601 953e
00000020: 36d8 46bd 914f 483e 239c 7b3e 6ebb 9bbd
00000030: 5509 933d d7b9 b03d 9a6c 62bd f11b 6e3e
00000040: c0cf 5a3e 004c a63e cd16 94bd c802 debb
00000050: 63b1 91bd 9676 8f3e b1d6 683e a8b4 7e3e
0.35748437 -0.0743322 0.25580397 0.07732574 0.066943124 -0.10603611 0.23939008 0.2910263
-0.04854604 0.19561602 0.2457128 -0.07604109 0.07179514 0.08629196 -0.05527935 0.23252846
0.21368313 0.32479858 -0.072309114 -0.006775234 -0.07113912 0.2802016 0.22738148 0.24873602

conv_2.conv.1.running_mean f4 [24]
00000000: dbfc 1c3f 843e b9be 9767 0ebf 0ba9 6dbf
00000010: 244d ba3d 92fa 0e3e 4e28 fdbe 1095 373f
00000020: a7f6 47be c2b9 a23e f72e 213f ab77 143f
00000030: e02a 56bf 9bed 51be b57c d3be 7c80 dfbe
00000040: 03ae 81bf 223a e8be 4625 87bd b1c1 273f
00000050: f726 be3f 6d1b 033f 7e19 89be b75a 223f
0.61323327 -0.36180508 -0.55626816 -0.92836064 0.09096745 0.13962772 -0.49444813 0.71711826
-0.19527684 0.31782347 0.6296229 0.579951 -0.8365917 -0.20500796 -0.4130608 -0.43652713
-1.0131229 -0.45356852 -0.06598906 0.65529925 1.4855641 0.51213723 -0.26777261 0.6341967

conv_2.conv.1.running_var f4 [24]
00000000: 58a7 6f3d dffd 8c3d 07f5 ce3d 9348 1e3e
00000010: af7c 0e3d 6a04 b53d d5e5 923d fd5a 053e
00000020: f522 533d 6be3 b13d fb01 1a3e 0ce5 953d
00000030: 5736 1f3e 67bf a33d 3c02 043d 43a2 d53d
00000040: 69a2 833e 3a47 003e 215b 1c3d 2fcb 963e
00000050: 01a1 493d 3e41 023d 1746 8c3d a0df 2f3e
0.0585092 0.068843596 0.10105329 0.15457372 0.034786876 0.088387325 0.07172743 0.1302299
0.05154701 0.08685955 0.15039818 0.07319078 0.15548073 0.079954915 0.032228693 0.104313396
0.25709847 0.12527171 0.038172845 0.29451892 0.04922581 0.0318005 0.06849306 0.1717515

flaten.conv.0.weight f4 [1, 24, 1, 1]
00000000: 5ce3 8bbe 6307 fd3c d879 d1be 13f6 2ebe
00000010: 4b66 0bbe 0cdf b13d ec44 c6be 884d acbe
00000020: 4ce9 ab3d 3d86 50be 4d5a c3be ed5f 1d3e
00000030: 4174 2abe 8c73 1cbe bd3b e73d 831e c9be
00000040: 9ba1 64be 1106 8fbe d340 313e 3b47 c1bd
00000050: ff28 6d3e 5930 a6be 2519 dcbe 13f7 adbe
-0.273219 0.030887311 -0.40913272 -0.17086057 -0.1361324 0.08685121 -0.38724458 -0.33652902
0.08394107 -0.20363708 -0.38154832 0.15368624 -0.1664591 -0.15278453 0.11290691 -0.3928109
-0.22327273 -0.27934316 0.17309885 -0.09437414 0.2316017 -0.3245876 -0.42987934 -0.33977565
