model/CP7_val_0.006280.pth (torch, 11546 bytes, 13 tensors)

conv_1.conv.0.weight f4 [12, 2, 2, 2]
000000 52 16 fc 3d 78 fd 38 be c5 c8 dd be 17 a5 25 be
       0.12308945 -0.1806544 -0.43317237 -0.16176258
000010 c4 4f a2 bd 1b 69 af 3d 47 0a 8f 3c a5 7b 31 3e
       -0.0792537 0.08564969 0.017460955 0.17332323
000020 00 fe 9d 3e 52 fb 7d 3d 62 d1 19 3e 6b d9 3a 3e
       0.3085785 0.062007256 0.1502128 0.18247001
000030 57 09 b6 be 40 93 b5 be 6f c2 a4 be 04 6c d8 bd
       -0.35554 -0.35463905 -0.3217959 -0.10567477
000040 f0 ae d6 be 7f d4 7b be 72 5c 6d bb 33 ae 36 bc
       -0.41930342 -0.2459278 -0.0036218432 -0.011149931
000050 37 a5 58 be ff 81 80 3c 47 7f d3 3c f7 cb 2b 3e
       -0.21156774 0.015686987 0.025817527 0.16777025
000060 7e ac 21 be a7 3f 31 3e 34 23 83 bd 4c 10 b2 3e
       -0.15788457 0.17309438 -0.06403199 0.3477806
000070 6e 45 62 3d 42 f4 ef bd 01 29 c1 3e e0 a1 a6 3d
       0.055241995 -0.1171651 0.37726596 0.08136344
000080 06 d1 22 3e 5d 31 66 3e ec 76 98 3e 9f 4e 10 bd
       0.15900049 0.22479768 0.2977823 -0.03523123
000090 87 4a a1 3e 0b fe 46 be 86 77 81 bd 7c e8 c3 3d
       0.31502172 -0.19432847 -0.063216254 0.09565827
0000a0 dc cf 4e bd d7 e7 ca be 89 61 20 3e c4 3c 94 3d
       -0.0504912 -0.39630005 0.15662207 0.072381526
0000b0 d5 52 c4 3d 77 a7 b2 be 50 05 6a be 51 94 fe 3d
       0.095861115 -0.3489339 -0.22853589 0.12430633
0000c0 94 b1 ae 3d 34 e0 45 be fe 42 00 be 22 2e 0a be
       0.08529964 -0.19323808 -0.12525555 -0.13494161
0000d0 b6 8a 47 3c 0f 6f cb be 31 74 09 3d a6 27 f7 3d
       0.012179067 -0.39733168 0.033558074 0.12068109
0000e0 d7 85 5a be 62 99 04 3e 99 bd 90 3e e4 44 96 3e
       -0.21340118 0.12949136 0.28269652 0.29349434
0000f0 af fb a1 bd ca 25 64 bb 39 e2 ad 3e 7b a9 89 be
       -0.07909333 -0.0034812563 0.33961657 -0.26887116
000100 23 84 45 3e 3f ec 63 be f8 25 01 3e 1e 38 62 3e
       0.19288687 -0.2225809 0.1261214 0.2209172
000110 c8 6e 79 be 36 05 ab be 05 bf b6 be 15 71 df bd
       -0.24358666 -0.33402413 -0.3569261 -0.109102406
000120 fc 1e c6 3d ed d8 7a 3e 1e 59 05 be ae 4e 53 be
       0.096738786 0.24496813 -0.13022277 -0.20635483
000130 04 ce 4c be 14 64 90 be dc 5b d2 be 49 bc 94 be
       -0.20000464 -0.28201354 -0.41085708 -0.290499
000140 c2 9a 7d 3d 49 a4 36 3d 5e ea 85 be 0f a1 0e 3e
       0.061915167 0.04459027 -0.2615537 0.13928626
000150 bf 3f 5e be 53 6b e2 3d d5 e6 08 bf f0 79 24 be
       -0.21704005 0.11055627 -0.5347722 -0.1606214
000160 7d 94 d1 bd da 5d 97 3c ac 59 93 3e c5 36 50 be
       -0.102334 0.01847737 0.28779352 -0.20333393
000170 fe 08 6c be a0 d4 dc be 92 67 fd bd fe 26 21 bd
       -0.23050305 -0.4313097 -0.1237327 -0.039343826

conv_1.conv.0.bias f4 [12]
000000 5b 3b 82 be 15 e8 4c be 87 a0 e6 ba 8a 29 6f bc
       -0.2543591 -0.20010407 -0.0017595448 -0.014597306
000010 27 4a 45 be 68 e2 01 be 1e 00 9e bc 54 53 a2 bd
       -0.19266568 -0.12684023 -0.019287165 -0.0792605
000020 a7 22 8a 3e a7 bf a3 be 3f 6f 98 be ac 7b b0 3e
       0.26979563 -0.31982157 -0.29772374 0.34469354

conv_1.conv.1.weight f4 [12]
000000 a0 63 82 3f 77 73 78 3f da f9 80 3f 28 b9 55 3f
       1.0186653 0.97051185 1.0076249 0.8348565
000010 25 94 5c 3f 3f 11 5f 3f 5f f0 88 3f b5 92 50 3f
       0.8616355 0.8713569 1.0698355 0.8147386
000020 31 a5 88 3f ba 9f 84 3f c3 ca 8f 3f df 2e 81 3f
       1.0675412 1.0361245 1.1233753 1.0092429

conv_1.conv.1.bias f4 [12]
000000 d0 59 e3 bd 07 dc b5 be cf 14 aa bd f1 f5 2c ba
       -0.11101115 -0.3551943 -0.0830475 -0.00065979274
000010 12 ff 73 3e 10 c6 82 bd 0a 49 03 bb 8e e2 23 3e
       0.2382777 -0.06385434 -0.0020032548 0.16004393
000020 b4 5e 90 be 4f 45 76 be ee 15 e1 bd 3b c6 8c be
       -0.28197253 -0.24049877 -0.10990511 -0.27494988

conv_1.conv.1.running_mean f4 [12]
000000 9b e3 fd c1 85 50 18 c2 69 e2 43 c2 a5 c7 50 42
       -31.736135 -38.078632 -48.971104 52.194965
000010 0e f7 67 42 f9 18 2e c2 c9 90 31 c2 7c 68 09 42
       57.991264 -43.524387 -44.39139 34.352036
000020 a2 15 68 c2 02 a0 b7 c2 dd af 7e c2 e8 92 7e c2
       -58.021126 -91.812515 -63.67174 -63.643463

conv_1.conv.1.running_var f4 [12]
000000 0b c3 38 44 ff 86 04 45 d1 69 fc 44 2d 09 e1 44
       739.04755 2120.4373 2019.3068 1800.2867
000010 83 ed c8 44 a5 c3 e5 44 98 35 ae 44 a6 ff b4 44
       1607.4222 1838.1139 1393.6748 1447.989
000020 c2 2e 1d 45 74 7f 89 45 75 4a 6a 45 78 9f 21 45
       2514.9224 4399.9316 3748.6536 2585.9668

conv_2.conv.0.weight f4 [24, 12, 2, 2]
000000 9b 66 f1 3d af 74 f7 3c a4 e5 29 bc a3 13 91 3c
       0.117871486 0.030207006 -0.010369692 0.017709559
000010 57 b8 1e be 90 5c 05 bd 21 a1 09 be 68 30 c5 3d
       -0.15500008 -0.032558978 -0.13440372 0.096283734
000020 8c 02 7a bd 74 6c 08 3d 5c 18 b9 bc cf 65 b5 3d
       -0.061037585 0.033306554 -0.022594623 0.08857309
000030 49 7d 99 bc d4 e6 ed bc e3 51 00 bd 85 bb 4c bc
       -0.018736498 -0.029040731 -0.031328093 -0.01249588
000040 b0 27 2a bd ea 4f 52 bc ca 5b 0e 3d f0 34 38 bd
       -0.041541755 -0.012836436 0.034755506 -0.04497236
000050 9c 99 58 3d 82 eb 4c 3c fe 8c b0 bc 2c 31 eb bc
       0.05288087 0.012507321 -0.021551605 -0.02870997
000060 13 26 e5 bb 7e 97 f0 3d 8a c4 47 3d 30 22 fd 3d
       -0.006993064 0.11747645 0.04877142 0.123600364
000070 c9 ae 1e 3c e3 e1 67 bb d5 64 36 3d e7 dc fc 3c
       0.009685227 -0.0035382442 0.044529755 0.030867053
000080 ef 30 62 3d 6f a1 53 3d 56 88 71 bc ce 15 6f bd
       0.055222448 0.051667627 -0.014741978 -0.058370404
000090 ab 95 2f 3c e6 67 20 be ff 14 11 3d 0f ee 15 be
       0.010716836 -0.15664634 0.035420414 -0.14641593
0000a0 92 63 2d 3e 3c 73 f9 bc 33 14 55 3e dd 41 af bc
       0.16932514 -0.030450456 0.20808487 -0.02139371
0000b0 55 9f 35 3d 1f a2 22 3e 2c 64 97 bc e8 67 a7 bd
       0.044341404 0.15882157 -0.018480383 -0.081741154
0000c0 4d d7 f4 bb e8 08 cc 3d fa 63 1c bd 0a 43 c1 bd
       -0.007471955 0.09962636 -0.038181283 -0.09436615
0000d0 fe 9c 0e be cb dc d4 bc 37 30 29 be 4b cf 48 3d
       -0.13927075 -0.025984189 -0.16522299 0.049025815
0000e0 40 84 c4 3d 7a 3d 25 bd 68 9e 22 3e d1 f6 3b 3d
       0.09595537 -0.04034183 0.1588074 0.04588968
0000f0 c6 a6 f9 3c 8c 63 80 3d 63 d5 df 3c 81 56 e2 3c
       0.030475032 0.06268987 0.02732343 0.027629139
000100 d2 fc ea bb 88 d5 7e bd e1 30 4f bb 1f 4d a9 bd
       -0.007171252 -0.062215358 -0.0031614827 -0.08266663
000110 f7 8b 23 3d 69 d0 ec bd 53 1d 05 be 06 39 1c 3c
       0.039928403 -0.115631886 -0.12999468 0.00953508
000120 f6 d5 d1 bd 32 cc c4 3d d5 c4 59 3d 53 07 f5 3d
       -0.10245888 0.0960926 0.05316623 0.119642876
000130 11 c8 56 3d 15 4a 94 bd b6 10 9e 3c ab 1f d3 bd
       0.052436892 -0.072406925 0.019295078 -0.103087746
000140 f1 8b 01 be 6a da a7 bd 73 c1 2b 3d a0 63 11 be
       -0.1265104 -0.08195956 0.041932534 -0.1419816
000150 3b 37 87 3c 7a fb 1b be 1b f8 08 3c 36 c1 a8 bd
       0.016505828 -0.1523265 0.008359934 -0.08239977
000160 54 e5 dd 3c 86 89 ee bd db 55 44 bd ed b5 c9 3c
       0.027086891 -0.11647324 -0.04793344 0.024622882
000170 d7 18 f2 bc d6 30 9c 3d 57 da 4e bd 75 b7 21 3c
       -0.02955286 0.07626502 -0.050501194 0.0098704
000180 63 40 89 bd bd e6 e4 bb a5 5a f5 bd 2b 5f 54 3d
       -0.06701734 -0.006985514 -0.1198018 0.05184857
000190 b0 20 19 be 2b 9b 91 3d 57 dc 99 bd 3f 39 a4 bd
       -0.14953876 0.07109674 -0.075127296 -0.08018731
0001a0 5a e1 94 bc 3d b7 35 3e 5f 59 a3 bd 2c ea b5 bc
       -0.018173862 0.17745681 -0.079760306 -0.022206388
0001b0 c9 5b 8c 3d e4 b7 70 3b 0a 9d 30 bd d5 3f 00 bd
       0.06853444 0.00367307 -0.043118514 -0.031310875
0001c0 a4 7d 8d 3c 91 91 ce 3b 59 15 f6 bc 25 bf ef 3d
       0.017271824 0.006303974 -0.030039476 0.1170638
0001d0 a2 13 4f bd 28 c2 c8 bd b4 64 6f 3d bb 6a b3 bd
       -0.050555833 -0.09802657 0.058445647 -0.087605916
0001e0 0a 85 02 bd 73 a7 13 bd 3a 82 2d 3e 34 ef 81 3d
       -0.031865157 -0.036048364 0.16944209 0.063444525
0001f0 e5 e2 94 bc 46 23 01 bd c7 ff 2d bd ec 67 72 bd
       -0.018174598 -0.03152778 -0.042480256 -0.05918114
000200 5a 5a ea 3d 87 3f 15 be fc cb ce bc f5 99 24 bd
       0.114430144 -0.14575015 -0.025243752 -0.040185887
000210 3d 7e 9d 3c db 48 a6 3d 9d 5c f7 bd 90 4d c2 bb
       0.019225234 0.08119365 -0.120782115 -0.0059296563
000220 6d ed c9 3b 04 73 84 bd 9a 04 43 be 94 15 b3 bd
       0.0061623366 -0.0646725 -0.19044724 -0.0874435
000230 47 11 36 3d 1e 0d 6f 3d 77 29 ad 3d 98 5f b8 3d
       0.04445007 0.05836212 0.084551744 0.09002608
000240 dc 5e f2 bd 06 4d a8 3d 22 99 26 be 8d 0e f7 bd
       -0.11834499 0.08217816 -0.16269353 -0.12063322
000250 51 d2 49 bd 2b 6d 26 be 7d 57 36 3c ec 7b 38 3d
       -0.04927284 -0.16252582 0.011129257 0.045040056
000260 a0 7a f2 bc 37 a7 b2 bd bb da c5 ba 21 ff 99 3d
       -0.029599488 -0.087233 -0.0015095094 0.07519365
000270 5c b0 65 bc 02 9e 77 bd a2 86 c6 3d ec 32 0d 3c
       -0.014019098 -0.060453422 0.09693648 0.008618098
000280 fc 45 2b bc 75 92 20 bd d2 92 16 bd d5 ea b0 3d
       -0.010453697 -0.039202172 -0.036761113 0.08638541
000290 97 38 3c bd 38 0e 10 bd 69 aa b0 bd db 98 93 bb
       -0.045952406 -0.03516981 -0.08626253 -0.004504306
0002a0 b6 bb 47 3d cd 14 23 be 9d ea 09 3d d2 83 ed 3d
       0.048763 -0.15925904 0.03367101 0.11597408
0002b0 96 6d 70 3d 96 a5 9c 3b 46 a2 54 3d cd 6b fc 3c
       0.05869826 0.0047804816 0.05191257 0.030813122
0002c0 6d 91 f4 bc fa 0d f3 3d 9c 35 1a 3c 0f 35 f4 bd
       -0.0298545 0.118679 0.0094121955 -0.119241826
0002d0 4c c2 2f bd 7a 67 1f be 76 6a c7 bd 5d fe 26 be
       -0.042909905 -0.15566817 -0.09737103 -0.1630797
0002e0 b8 3d 32 bd 0e 7c a0 bd c1 53 0f be b2 6b 79 bd
       -0.04351589 -0.078361616 -0.13996793 -0.060893722
0002f0 b3 3d 5b 3d a4 29 34 3d c3 35 47 bd 80 8b ab bc
       0.053525638 0.043985024 -0.048635256 -0.020940542
000300 d3 71 ae bd ae 87 8c bc 4f af a7 3d 0b 15 81 bd
       -0.08517804 -0.01715454 0.08187734 -0.06302842
000310 bb 20 95 bd c5 64 ac 39 a1 3a 9d bd c1 d6 04 be
       -0.072816335 0.00032881476 -0.07677198 -0.12972547
000320 32 f9 db 3d 27 02 d9 bc a5 d1 be bd 3e 47 b7 bd
       0.107408896 -0.026490284 -0.0931733 -0.08949135
000330 1d 18 f6 3b 74 b4 00 3d 1c f0 32 3d b6 72 14 bd
       0.0075101987 0.031422094 0.043686017 -0.03624221
000340 2c a8 b4 3c 86 69 6a 3d fd 70 1e be 84 05 f0 3d
       0.022052847 0.05722954 -0.15472789 0.11719802
000350 8e 2b fd bc 97 90 6f bd ba 0a 30 bc 35 b3 95 3d
       -0.030904558 -0.0584875 -0.010744745 0.07309572
000360 fd b7 e7 bd e3 55 26 3c a2 29 11 bd bd 96 67 bc
       -0.1131439 0.010152313 -0.035440095 -0.01413506
000370 0b 7b 9a bc 02 82 f0 3b 62 08 be 3d 07 5c f9 bd
       -0.0188575 0.007339717 0.09278943 -0.12175756
000380 b1 59 3f 3d a9 94 81 3d 6a f0 d5 3d 84 52 f7 3c
       0.046716396 0.06327183 0.10446246 0.030190714
000390 42 53 6b bd 8f ab 81 3d e9 9b 16 3c c0 df 58 3b
       -0.057452448 0.0633155 0.009192445 0.003309235
0003a0 65 dc 48 bd 73 56 fa bd e2 dc f4 3d 2c f1 c5 3d
       -0.04903831 -0.1222352 0.119561926 0.096651405
0003b0 bb 9d b9 3d 83 5e 03 3d 0f 07 95 bd 30 e3 58 bd
       0.09063288 0.032072555 -0.07276737 -0.052951038
0003c0 26 b1 7e bd d2 67 fd 3d cc 56 a7 3c 79 2d 1c 3e
       -0.06218066 0.12373318 0.02042713 0.15251721
0003d0 1d 9d bb ba ca cd aa bd 89 37 7b 3c 87 45 1f bd
       -0.0014313791 -0.083400324 0.015333065 -0.038884666
0003e0 10 0d 93 bd 48 4c 7b 3d 62 52 9f 3d f3 0d 2b 3e
       -0.07180226 0.061352044 0.07779385 0.1670454
0003f0 6f 9b cb 3c b7 5e 05 3e d7 a0 f4 3c 88 26 ca 3d
       0.02485439 0.13024412 0.02986185 0.098706305

conv_2.conv.0.bias f4 [24]
000000 6a d9 4e 3d 1a d2 57 3b 4b 63 de bd 4d 1c fe bd
       0.05050031 0.0032931627 -0.108587824 -0.12407742
000010 82 fa 92 bc 11 d9 0b 3e 0f a2 9f bc 7c d1 cc 3d
       -0.017941717 0.13657023 -0.019486455 0.100008935
000020 96 fe 0b be cd ec eb 3d ac 12 b6 3d 6e 4b a7 3c
       -0.13671336 0.115197755 0.0889028 0.02042171
000030 c3 e9 93 3d 4c 8c 37 3d 5e cd 4e 3b 2b 33 42 3d
       0.07222321 0.044811532 0.0031555514 0.04741208
000040 1b af ca 3d 56 67 87 3d 36 65 f3 3d 39 63 08 3e
       0.0989668 0.06611507 0.11884539 0.133191
000050 5b 4a a1 bc e2 06 ef 3c 09 fe b3 3d 04 b0 a0 bd
       -0.019688776 0.029178087 0.08788688 -0.07846072

conv_2.conv.1.weight f4 [24]
000000 fa cf bf 3f 85 8e 71 3f f7 06 ae 3f 15 1a 9f 3f
       1.4985344 0.9435809 1.3595876 1.2429835
000010 66 4c 96 3f ac e1 6d 3f e2 3d ac 3f 2d 13 b1 3f
       1.1742065 0.9292247 1.3456385 1.3833977
000020 4e 08 83 3f dc b8 aa 3f 4c e7 a7 3f 7b 48 82 3f
       1.0236909 1.3337665 1.3117461 1.0178369
000030 ae 49 94 3f dd d0 95 3f 11 a6 83 3f fe 9d a9 3f
       1.1584985 1.1704365 1.0285054 1.325134
000040 df a1 af 3f 26 b6 be 3f 3a e4 84 3f 9c a1 85 3f
       1.3721274 1.4899337 1.0382149 1.0439944
000050 73 00 87 3f 2f 76 b5 3f 2a 9a ab 3f 07 f1 aa 3f
       1.0547012 1.4176692 1.3406422 1.3354806

conv_2.conv.1.bias f4 [24]
000000 6c e5 ba 3e 38 fa 9a bd 75 89 87 3e 3e 9a aa 3d
       0.3650316 -0.07567257 0.2647206 0.083302006
000010 bc d6 9e 3d 63 01 d5 bd c1 d9 7c 3e ae 32 99 3e
       0.07755801 -0.10400655 0.24692442 0.29921478
000020 8f 51 29 bd c4 05 50 3e 94 b5 81 3e 3f 3f 8f bd
       -0.041337546 0.203147 0.25333846 -0.06994485
000030 81 3f a2 3d 50 0b c5 3d 50 4a 41 bd 46 f0 76 3e
       0.07922269 0.09621298 -0.04719001 0.24115095
000040 a9 b6 62 3e 89 91 aa 3e 9a f2 85 bd dd ea 01 3b
       0.22139992 0.3331416 -0.06540413 0.0019823827
000050 7e f4 82 bd 6f b1 92 3e 32 35 70 3e d9 c0 83 3e
       -0.063942894 0.28650996 0.23457792 0.2573307

conv_2.conv.1.running_mean f4 [24]
000000 2d ef 14 3f 63 19 c9 be dd 40 1a bf e1 55 73 bf
       0.58177453 -0.3927718 -0.60255224 -0.95052916
000010 2b 25 ae 3d 26 e9 1f 3e 02 63 04 bf 63 15 32 3f
       0.08503183 0.15616283 -0.51713574 0.69563884
000020 eb ca 76 be 70 71 9b 3e 82 2b 1c 3f 15 65 29 3f
       -0.24100845 0.30359983 0.6100389 0.66169864
000030 9c 4a 56 bf 4e 4f 62 be df 3b df be 54 b6 e6 be
       -0.83707595 -0.22100565 -0.43600366 -0.4506098
000040 3a b6 83 bf 3e 43 fe be aa b6 0c be 82 31 21 3f
       -1.0289986 -0.49660677 -0.13741556 0.6296617
000050 80 2c ba 3f 3e ae f5 3e 27 63 91 be 8d 5b 20 3f
       1.454483 0.479845 -0.2839596 0.62639695

conv_2.conv.1.running_var f4 [24]
000000 ac fd 6a 3d 63 18 a1 3d 4c d2 c6 3d 0c 66 0f 3e
       0.057370827 0.078659795 0.0970808 0.14003772
000010 35 61 0b 3d b7 73 9a 3d db ad 8a 3d 9e 09 fd 3d
       0.03402825 0.07541602 0.067714415 0.1235535
000020 c8 df 47 3d 58 bd b0 3d 08 f9 17 3e 06 7d 75 3d
       0.0487974 0.086298645 0.14841092 0.059933685
000030 7c 6c 11 3e b9 eb a0 3d 0c d9 de 3c dc ef c1 3d
       0.1420154 0.078574605 0.027203105 0.09469578
000040 59 3c 84 3e 59 ef f4 3d 62 2b 16 3d 1a 4f 96 3e
       0.25827292 0.119597144 0.036662467 0.29357225
000050 63 cc 51 3d 63 8b 00 3d 9d 32 88 3d 4e 6d 2c 3e
       0.05122031 0.03138293 0.06650279 0.16838571

flaten.conv.0.weight f4 [1, 24, 1, 1]
000000 ed 6f 93 be 7e 0f 1e 3d 25 cf dc be 9e b1 47 be
       -0.2879633 0.038588993 -0.4312679 -0.1950135
000010 c5 15 25 be 86 0d c6 3d f8 4f d1 be 71 46 b3 be
       -0.16121586 0.09670548 -0.40881324 -0.3501468
000020 bd 13 c7 3d a7 2b 63 be 2c ea c9 be 3f 28 2b 3e
       0.09720562 -0.22184621 -0.3943647 0.16714571
000030 c0 03 3c be 15 82 30 be c5 fd 01 3e b2 06 d2 be
       -0.18360806 -0.17237122 0.12694462 -0.41020733
000040 a5 a2 75 be 6a 23 9c be 8d 24 40 3e 4f 0a f2 bd
       -0.23987825 -0.3049577 0.18763943 -0.118183725
000050 e6 a8 80 3e 96 ec ad be 69 17 e5 be 5b 7e b5 be
       0.2512886 -0.33969563 -0.44744423 -0.35447964
